output/best_model.pth (torch, 459471 bytes, 24 tensors)

encoder.0.0.weight f4 [64, 1, 3, 3]
0	0x3d0d0d74	0.034436658
1	0xbe6341c4	-0.22193056
2	0x3e2d4928	0.16922438
3	0x3d9c361c	0.07627508
4	0xbe579e89	-0.2105657
5	0xbda1a1e9	-0.0789221
6	0xbdf4bf52	-0.11950554
7	0xbd69d594	-0.05708845
8	0xbd4178d3	-0.047234368
9	0x3e046c8d	0.12932034
10	0x3e6644c9	0.22487177
11	0xbc5ec28f	-0.013596191
12	0xbe18ec49	-0.14933886
13	0xbe8602c5	-0.26173988
14	0xbdaccb75	-0.08437244
15	0xbe184c0c	-0.1487276
16	0x3de795db	0.113078795
17	0xbe97778a	-0.2958339
18	0x3eac5f4b	0.33666453
19	0xbe979fd9	-0.29614142
20	0x3e6f511d	0.23370786
21	0xbd71504a	-0.05891446
22	0x3e50f90e	0.20407507
23	0x3dcd7a88	0.100331366
24	0x3c88cc95	0.016699115
25	0x3dab14ff	0.08353614
26	0x3e4c276f	0.19936918
27	0x3da89e5e	0.08233331
28	0x3e641d48	0.22276795
29	0xbdecb7e0	-0.11558509
30	0x3e81e2f9	0.2536848
31	0x3d8816a4	0.06644943
32	0x3e03eb6b	0.12882774
33	0x3d98d391	0.07462228
34	0x3e0c26df	0.13686703
35	0x3ea6b081	0.32556537
36	0xbe1b3e6b	-0.1516053
37	0xbe545012	-0.2073367
38	0xbda131dd	-0.07870839
39	0xbe93d2f0	-0.2887187
40	0x3e240385	0.16016968
41	0xbe287e03	-0.1645432
42	0xbe64aaf6	-0.22330841
43	0x3e8149e4	0.25251687
44	0x3e292134	0.16516572
45	0x3c2631e4	0.010143731
46	0xbde832f8	-0.113378465
47	0xbd71a004	-0.058990493
48	0x3ddb1e86	0.10699181
49	0xbe9f71ad	-0.31141415
50	0xbe97c068	-0.29638982
51	0x3d96dee4	0.07366732
52	0x3ed4c72a	0.415582
53	0xbd4e6a17	-0.050394144
54	0xbea8644d	-0.32889023
55	0x3b47e3d3	0.0030500784
56	0xbe09d952	-0.13461807
57	0xbd1c21f6	-0.038118325
58	0x3e202d79	0.15642346
59	0x3dcb5804	0.09928897
60	0xbce7b769	-0.028285699
61	0x3cb74b7b	0.02237486
62	0x3d0c2892	0.03421838
63	0xbdb7bf05	-0.08971981
64	0xbc73849a	-0.014863158
65	0x3d2400b7	0.040039744
66	0xbdeda410	-0.11603558
67	0xbe458ef5	-0.19292815
68	0x3dfe89f6	0.12428658
69	0x3e323463	0.17402796
70	0xbe1c6c9e	-0.15275809
71	0xbe49024f	-0.19629787
72	0x3e56b468	0.20967257
73	0xbe26891a	-0.16263238
74	0xbd8db13c	-0.069185704
75	0x3e525928	0.20541823
76	0x3db510dc	0.08841106
77	0xbc3681c3	-0.011139336
78	0x3de11d14	0.10991874
79	0xbd9a85b9	-0.07545037
80	0x3eb50055	0.35351816
81	0xbe93ab1d	-0.28841487
82	0xbe32ee59	-0.17473735
83	0xbd8b9cd9	-0.06817026
84	0xbe3a566a	-0.18197027
85	0xbe183142	-0.1486254
86	0x3e58334b	0.21113317
87	0x3e3e9e60	0.18615103
88	0x3d912b83	0.07088377
89	0x3df26e83	0.11837485
90	0xbdb0fa35	-0.08641473
91	0xbaff453d	-0.0019475591
92	0x3e0344c3	0.128192
93	0xbe10f065	-0.14154203
94	0xbebd00bf	-0.36914632
95	0xbebc4165	-0.36768642
96	0xbdd2bf3b	-0.102903806
97	0x3e9035ee	0.28166145
98	0x3d084997	0.033273306
99	0x3e92dc1f	0.28683564
100	0xbe58e345	-0.21180446
101	0xbe49038d	-0.19630261
102	0xbe95b7ac	-0.29241693
103	0xbe0ff03e	-0.14056489
104	0x3c7d86b9	0.015474015
105	0xbe81967d	-0.25310126
106	0x3e6f87a9	0.23391594
107	0x3b97f4c8	0.0046373345
108	0xbe3aa1f9	-0.1822585
109	0x3e34f62e	0.17672035
110	0xb92609c1	-0.00015834627
111	0x3e45c03f	0.19311617
112	0x3daf84c1	0.08570243
113	0xbd040082	-0.032227047
114	0xbcf7405c	-0.030182056
115	0xbe8ea020	-0.2785654
116	0xbe585d20	-0.21129274
117	0xbd6e1b90	-0.058131754
118	0xbe2b627f	-0.16736792
119	0xbccb314e	-0.024803784
120	0x3ddcf4c4	0.10788873
121	0xbe747fae	-0.23876831
122	0x3e7282a0	0.23682642
123	0xbde41fa7	-0.1113885
124	0xbd70bb99	-0.058772657
125	0xbdb57932	-0.08861007
126	0xbea26899	-0.31720427
127	0xbe8099e6	-0.25117415
128	0x3dacd415	0.08438889
129	0x3d3cab3f	0.04606175
130	0xbe8d7f56	-0.27636212
131	0xbe57eca5	-0.21086366
132	0xbeaa3c93	-0.3324934
133	0x3dd91167	0.10599022
134	0x3e6777d8	0.2260431
135	0x3db0ab26	0.08626394
136	0xbe9d917e	-0.30775064
137	0x3e179fbd	0.14807029
138	0x3e549ecb	0.207637
139	0xbdb4ce15	-0.088283695
140	0xbdec8d07	-0.11550336
141	0x3d5a4109	0.05328468
142	0x3d4c63da	0.049899913
143	0xbdfe91f6	-0.124301836
144	0xbdfb1cc8	-0.12261349
145	0xbe217fa7	-0.15771352
146	0x3d2b7e33	0.0418684
147	0xbd0f38f3	-0.03496642
148	0x3ecd82b2	0.40138775
149	0xbcd4ac69	-0.025961118
150	0xbd837380	-0.06418514
151	0xbe9e48d0	-0.30914927
152	0xbe3303f9	-0.17481984
153	0xbd593d5b	-0.05303703
154	0x3e2b0b44	0.16703516
155	0xbd693946	-0.056939386
156	0xbec81bed	-0.39083806
157	0x3e47932c	0.19489735
158	0x3e5a4a9d	0.21317525
159	0xbe9c4e21	-0.30528358
160	0xbe06f925	-0.13180979
161	0x3be6bf96	0.007041882
162	0xbdda87c9	-0.1067043
163	0xbe8ba1c4	-0.27271855
164	0x3e20ce06	0.15703592
165	0xbe200de6	-0.15630302
166	0xbdf4a5fe	-0.11945723
167	0xbe91b828	-0.28460813
168	0x3e95fd59	0.2929485
169	0x3ad52775	0.001626237
170	0x3db80086	0.08984475
171	0xbe6e2ea8	-0.23259985
172	0x3e96200e	0.2932133
173	0xbcc37b16	-0.023862403
174	0xbe5060d4	-0.20349437
175	0xbbaebca4	-0.0053325463
176	0xbe0e2198	-0.13880002
177	0xbb853355	-0.004064957
178	0x3e7414d2	0.23836067
179	0xbe26a13a	-0.1627244
180	0x3e685d26	0.22691783
181	0x3dbf177f	0.093306534
182	0xbdd72e1b	-0.10506841
183	0x3d89115d	0.06692765
184	0xbd5dffb3	-0.054198932
185	0xbe24d8ea	-0.16098371
186	0xbe8ccc0b	-0.27499422
187	0x3e3ecb2a	0.18632188
188	0x3e404cee	0.18779346
189	0x3d154dd4	0.036451176
190	0x3e018a6e	0.12650463
191	0x3e9dc315	0.30812898
192	0x3ea44bd1	0.32089093
193	0xbeb1f9d6	-0.34760922
194	0x3cf0ab18	0.029378459
195	0x3c48184e	0.012212826
196	0x3e44033f	0.19141863
197	0x3d5f5d29	0.054532204
198	0x3d886bee	0.06661211
199	0xbe6f7476	-0.2338427
200	0x3db71b08	0.08940703
201	0x3ea65b2c	0.32491434
202	0xbdf42f19	-0.11923046
203	0xbea816a5	-0.32829776
204	0xbe98bf40	-0.29833412
205	0xbe08ed2e	-0.13371727
206	0x3b7d34c3	0.0038636185
207	0x3c5b6063	0.01338968
208	0x3bcf12a9	0.006319363
209	0x3e8dbdbc	0.27683818
210	0xbdf3e50f	-0.11908924
211	0x3e33db17	0.17564045
212	0xbe37a241	-0.17932989
213	0x3e87c314	0.2651602
214	0x3da73d95	0.08166043
215	0xbaf34cdc	-0.0018562335
216	0x3e234b74	0.15946752
217	0x3d9e7046	0.07736258
218	0x3d5230b8	0.051315993
219	0xbe1bf845	-0.15231426
220	0x3c403a56	0.011732658
221	0x3c241682	0.010015132
222	0xbe954826	-0.29156607
223	0xbd05b196	-0.032640062
224	0x3c98cf76	0.018653613
225	0xbd41819b	-0.047242742
226	0x3dcf479b	0.101210795
227	0xbe17d565	-0.14827497
228	0xbe867c71	-0.26266816
229	0xbebcfc74	-0.36911356
230	0xbe985740	-0.29754066
231	0x3c25f9ec	0.010130387
232	0x3e11189b	0.14169542
233	0x3e75fe9d	0.24022909
234	0x3e3320e5	0.17493017
235	0x3cbe0089	0.023193615
236	0x3e19ceb0	0.15020251
237	0xbd384dc0	-0.044996023
238	0x3e97005d	0.29492465
239	0xbda98663	-0.08277585
240	0xbe22deb2	-0.15905264
241	0xbe8391d6	-0.25697201
242	0xbea299e8	-0.31758046
243	0xbe32f556	-0.174764
244	0xbd06713c	-0.032822832
245	0x3e83d875	0.2575108
246	0xbe05c7d9	-0.13064517
247	0xbec609aa	-0.38679248
248	0xbe271d13	-0.16319685
249	0x3e952886	0.2913248
250	0x3c5f0237	0.013611368
251	0xbd4e26ad	-0.050329853
252	0xbe75d053	-0.2400525
253	0x3e90d968	0.28290868
254	0xbebf0fc3	-0.37316713
255	0x3daf310e	0.08554278

encoder.0.0.bias f4 [64]
0	0x3e4c354f	0.1994221
1	0x3e0f5c74	0.14000112
2	0xbe8f09d6	-0.27937192
3	0x3e139ea0	0.1441598
4	0xbe5cad62	-0.21550515
5	0x3e3af74c	0.18258399
6	0xbe18a8e1	-0.14908172
7	0xbb79a09d	-0.0038090118
8	0x3b2a0a92	0.0025946242
9	0xbe49f13c	-0.1972093
10	0xbe869f15	-0.26293245
11	0xbd91d0ce	-0.071199045
12	0x3e70cf93	0.23516683
13	0xbda3dc5b	-0.08001014
14	0xbdeb1140	-0.114778996
15	0xbe3501b6	-0.17676434
16	0xbe7d0ce0	-0.24711943
17	0xbc8c12db	-0.017098835
18	0xbd3a642f	-0.0455057
19	0x3e020111	0.1269572
20	0x3ea8e3a9	0.3298619
21	0xbe3f1eca	-0.18664089
22	0xbe179d49	-0.14806093
23	0x3e510825	0.20413263
24	0xbe4d1ded	-0.20030947
25	0xbd022ea7	-0.031782772
26	0xbe3ababd	-0.18235298
27	0x3e352e6c	0.1769349
28	0xbc970a97	-0.018437667
29	0x3d80ab05	0.062826194
30	0x3e6767f0	0.22598243
31	0xbe8f1b33	-0.2795044
32	0xbe4cce70	-0.20000625
33	0x3e98a751	0.29815152
34	0x3dd643c3	0.10462143
35	0x3cf22f66	0.029563617
36	0x3eb83853	0.35980472
37	0x3e747034	0.23870927
38	0xbe0f0f36	-0.13970646
39	0xbdc51dcb	-0.09624823
40	0x3e19f2eb	0.15034072
41	0xbe3f5656	-0.18685278
42	0xbea9470f	-0.33062026
43	0xbe226900	-0.15860367
44	0xbea4b934	-0.3217255
45	0x3e8035e8	0.25041127
46	0x3d237c4a	0.039913453
47	0xbe990ad4	-0.29891074
48	0xbd2ce5d5	-0.042211372
49	0x3eb046be	0.34428972
50	0xbe301d8e	-0.17198774
51	0xbe421b24	-0.18955666
52	0x3db4ffa3	0.08837821
53	0xbe88ede9	-0.2674401
54	0xbeb96543	-0.3621007
55	0x3e877cbc	0.26462352
56	0xbd234926	-0.03986468
57	0x3e4adfc4	0.19811922
58	0xbdb2b0fc	-0.08725163
59	0x3eac0208	0.335953
60	0xbe1b29ac	-0.15152615
61	0x3e8de83a	0.27716237
62	0xbe5ae35f	-0.21375798
63	0xbe0c3dc0	-0.13695431

encoder.0.1.weight f4 [64]
0	0x3fa00de8	1.2504244
1	0x3f767ca5	0.9628394
2	0x3f63458d	0.88778
3	0x3f4d8f83	0.80297107
4	0x3f75c959	0.9601036
5	0x3f794610	0.9737253
6	0x3f6f1078	0.93384504
7	0x3f977722	1.1833231
8	0x3f5fa56c	0.8736179
9	0x3f7bd4f9	0.98371845
10	0x3f9721ff	1.180725
11	0x3f99dbaf	1.2020167
12	0x3f83d326	1.0298812
13	0x3f97514f	1.1821688
14	0x3f7cb371	0.98711306
15	0x3f6d5090	0.92701054
16	0x3f980cf5	1.1878954
17	0x3f8399e8	1.0281343
18	0x3f80cd09	1.0062572
19	0x3f87d20b	1.0610975
20	0x3f53c2df	0.82719225
21	0x3f697a1d	0.91201955
22	0x3f98c0de	1.1933858
23	0x3f665459	0.89972454
24	0x3f687d61	0.90816313
25	0x3f832839	1.024665
26	0x3f73cb18	0.9523177
27	0x3f8db17c	1.1069789
28	0x3f861495	1.0475031
29	0x3f7860d0	0.97022724
30	0x3fad9b0b	1.356294
31	0x3f824924	1.0178571
32	0x3f903475	1.1266009
33	0x3f63051f	0.8867969
34	0x3f90aed9	1.1303359
35	0x3f79914c	0.9748733
36	0x3fa0f509	1.2574779
37	0x3f8a4270	1.0801525
38	0x3f7308eb	0.9493548
39	0x3f85eaa6	1.0462234
40	0x3f7d3c13	0.9891979
41	0x3f627c10	0.88470554
42	0x3f4d6e40	0.80246353
43	0x3f789b4b	0.9711196
44	0x3f749161	0.9553433
45	0x3f69b69a	0.9129425
46	0x3fbcf4a7	1.4762162
47	0x3f84f456	1.0387065
48	0x3f55a9b0	0.8346205
49	0x3f86410e	1.0488603
50	0x3f5eaf35	0.86986095
51	0x3f542632	0.8287078
52	0x3f570b26	0.84001386
53	0x3f79f4c3	0.976391
54	0x3f783b9e	0.9696597
55	0x3f7eb238	0.9949069
56	0x3f641d93	0.89107627
57	0x3f8c10e6	1.0942657
58	0x3f415f90	0.7553644
59	0x3f5974a9	0.84943634
60	0x3f7e1bcf	0.9926118
61	0x3f787457	0.9705252
62	0x3fa33ac3	1.2752308
63	0x3f8c8784	1.0978856

encoder.0.1.bias f4 [64]
0	0xbe3fee76	-0.1874331
1	0x3ce5ba93	0.028043067
2	0xbe892f8c	-0.26794088
3	0xbe672e69	-0.22576298
4	0x3d460742	0.048346765
5	0xbe11b3ae	-0.14228699
6	0x3ced2bee	0.028951611
7	0xbdad4a53	-0.08461442
8	0xbe9544fc	-0.29154193
9	0x3d708ca5	0.05872788
10	0xbe716430	-0.23573375
11	0xbdbf4f17	-0.09341257
12	0xbda45e68	-0.08025819
13	0xbe5848ea	-0.21121565
14	0x3c9823f9	0.01857184
15	0xbe2eb42f	-0.17060922
16	0x3cb0b184	0.021569021
17	0xbdc825af	-0.097728126
18	0xbd76fa1f	-0.060297128
19	0xbe00be87	-0.1257268
20	0xbe2f6774	-0.17129308
21	0xbe8c3997	-0.27387688
22	0xbdf2cc69	-0.118553944
23	0xbe82c625	-0.25541797
24	0xbe6cf310	-0.23139596
25	0xbcbaf2e1	-0.022820892
26	0xbddad1d9	-0.106845565
27	0xbe000adb	-0.12504141
28	0x3dbc599d	0.0919678
29	0x3e039519	0.12849845
30	0xbe789214	-0.24274474
31	0xbdd4fde4	-0.10399988
32	0xbe51267c	-0.20424837
33	0xbe2d7e79	-0.16942777
34	0xbe5a2286	-0.21302232
35	0x3cbfd85c	0.023418598
36	0xbe215afc	-0.15757364
37	0xbd3bc715	-0.045844156
38	0xbe7a5133	-0.24445038
39	0xbe21a803	-0.15786748
40	0x3d5a050b	0.053227466
41	0xbe819bde	-0.2531423
42	0xbe99318c	-0.29920614
43	0xb99051ee	-0.00027526863
44	0xbb5cb30f	-0.0033676063
45	0xbe7f435e	-0.24928042
46	0xbe7340d4	-0.23755199
47	0xbd40639a	-0.046969987
48	0xbdf9cb50	-0.12196982
49	0x3dd84f3b	0.10561987
50	0xbe239978	-0.15976512
51	0xbdf7611c	-0.12079069
52	0xbe45b7f1	-0.1930845
53	0xbc7b44a0	-0.015336186
54	0x3d6cf311	0.057848994
55	0xbbf21b92	-0.0073885405
56	0xbe4f6e51	-0.20256926
57	0xbe3a3254	-0.18183261
58	0xbe7895aa	-0.24275842
59	0xbe3ee47a	-0.18641844
60	0xbd9a73e7	-0.07541638
61	0xbe4a70c6	-0.19769582
62	0xbe3dec9f	-0.18547295
63	0xbd5e37f3	-0.054252576

encoder.0.1.running_mean f4 [64]
0	0x3e2777d6	0.16354308
1	0x3dd15f58	0.102232635
2	0xbe5d3735	-0.21603091
3	0x3e711fc0	0.23547268
4	0xbe8396e9	-0.25701073
5	0x3e28e887	0.16494952
6	0xbe29e97b	-0.16592972
7	0xbd164157	-0.036683407
8	0x3d5913f2	0.052997537
9	0xbe604c33	-0.21904068
10	0xbe9f2e81	-0.31090167
11	0xbde9a68e	-0.11408721
12	0x3e5a7bd1	0.21336295
13	0xbde3c6ac	-0.11121878
14	0xbe3f0891	-0.18655612
15	0xbe3c377f	-0.18380545
16	0xbe909253	-0.28236637
17	0xbd363bc7	-0.044490602
18	0xbd9d1f21	-0.07671953
19	0x3dde44c3	0.10852959
20	0x3eaf9330	0.34291983
21	0xbe04bcb8	-0.12962615
22	0xbe49d301	-0.19709398
23	0x3e7a2749	0.24429049
24	0xbe58babe	-0.21164986
25	0xbda53186	-0.080660865
26	0xbe4c4cf8	-0.19951236
27	0x3e170f37	0.14751898
28	0xbd4dc867	-0.050239947
29	0x3cea96f3	0.028636431
30	0x3e33fdf5	0.17577346
31	0xbea654bd	-0.32486525
32	0xbe74901a	-0.23883095
33	0x3e983c31	0.29733422
34	0x3cdbdf26	0.026839804
35	0xb9855f62	-0.00025438803
36	0x3e975f8a	0.29565078
37	0x3e59157e	0.21199605
38	0xbe221c96	-0.15831217
39	0xbdf5066f	-0.11964118
40	0x3df8cda0	0.12148595
41	0xbe2dbe13	-0.16967039
42	0xbe91c723	-0.28472242
43	0xbe357fe5	-0.17724569
44	0xbeae966a	-0.34099132
45	0x3e72e2fd	0.23719402
46	0xbc85d3b3	-0.016336298
47	0xbea8dfb0	-0.3298316
48	0xbce1a8bd	-0.027546281
49	0x3e9fd09a	0.31213838
50	0xbe16b434	-0.1471718
51	0xbe30940b	-0.17243974
52	0x3defb098	0.117036045
53	0xbe9f4bd9	-0.31112555
54	0xbec69e98	-0.38792872
55	0x3e5aba98	0.21360242
56	0xbd34cae2	-0.044138797
57	0x3e23383b	0.15939419
58	0xbd1bcc08	-0.038036376
59	0x3eadcb88	0.33944345
60	0xbe2c0465	-0.16798551
61	0x3e8cc01c	0.27490318
62	0xbe87d16c	-0.26526964
63	0xbe287a99	-0.16453017

encoder.0.1.running_var f4 [64]
0	0x3c4a1a39	0.0123353535
1	0x3ca73bdb	0.020414283
2	0x3ccc7fa0	0.0249632
3	0x3d3fe182	0.04684592
4	0x3cd5ce1e	0.02609926
5	0x3cba9fee	0.022781339
6	0x3c2ca19c	0.010536578
7	0x3c386b8e	0.011256112
8	0x3cad9627	0.021189762
9	0x3cbbd55e	0.02292889
10	0x3ceda721	0.029010357
11	0x3ca88c18	0.020574614
12	0x3c539cbc	0.012915786
13	0x3c2fd192	0.010731118
14	0x3d326a57	0.043558445
15	0x3c13d6e9	0.009023407
16	0x3c751b8d	0.014960182
17	0x3cde9075	0.027168492
18	0x3caef79c	0.021358304
19	0x3c5706cd	0.01312418
20	0x3c1d0e92	0.009585993
21	0x3caf5776	0.02140401
22	0x3cca5a55	0.024701277
23	0x3c56cdf7	0.013110629
24	0x3c29401d	0.010330227
25	0x3d082daf	0.033246692
26	0x3cbddcca	0.02317657
27	0x3cbdc03b	0.023162952
28	0x3c3cfae5	0.011534427
29	0x3cc87b84	0.02447296
30	0x3cc6d5a0	0.024271786
31	0x3d3257b6	0.04354068
32	0x3c8a7405	0.016901026
33	0x3cc6e3ce	0.024278548
34	0x3d402dc6	0.046918653
35	0x3cb54fab	0.022132715
36	0x3d10385e	0.035210006
37	0x3d0d1c47	0.034450796
38	0x3c385c01	0.011252404
39	0x3c89e54b	0.016832968
40	0x3c928d9e	0.017889794
41	0x3c2f045c	0.010682192
42	0x3c82bd60	0.015959442
43	0x3c6b6cb1	0.014369176
44	0x3c5844a7	0.013199962
45	0x3c7e6f97	0.015529535
46	0x3cfae14b	0.030625006
47	0x3d2ce4d4	0.042210415
48	0x3c6b7f12	0.014373558
49	0x3c8abd07	0.016935838
50	0x3c8cd758	0.017192528
51	0x3c829152	0.015938435
52	0x3c9f33b8	0.019433841
53	0x3cb9ec96	0.02269582
54	0x3c929586	0.017893564
55	0x3cebf3f0	0.028802842
56	0x3cc2d79c	0.023784451
57	0x3ce6148e	0.028085973
58	0x3caf1e7e	0.021376844
59	0x3c828f9a	0.015937615
60	0x3d2a5a57	0.04159006
61	0x3bcb4ba6	0.0062040864
62	0x3cef8c3b	0.029241672
63	0x3c7453cc	0.014912557

encoder.1.0.weight f4 [64, 64, 3, 3]
0	0xbcd05763	-0.025432294
1	0x3ca60d0e	0.020269897
2	0xbbaada8a	-0.00521404
3	0x3ca6b183	0.020348316
4	0x3d1f6525	0.03891482
5	0x3d4858e4	0.048912898
6	0x3ce9c81d	0.028537804
7	0x3d6989f1	0.057016317
8	0x3c37f6f3	0.011228311
9	0x3ca3914c	0.019966744
10	0xbc24f4e3	-0.010068151
11	0xbcba829c	-0.022767358
12	0x3bcbefe8	0.0062236674
13	0xbc92ca4e	-0.017918732
14	0x3bf0c472	0.007347637
15	0xbd3a03a8	-0.045413643
16	0x3c85675b	0.016284635
17	0xbcae39ca	-0.02126779
18	0x3cb1829c	0.021668725
19	0xbd64cf44	-0.055861726
20	0xbaffb9ff	-0.0019510387
21	0xbd30ca47	-0.043161657
22	0xbd49031c	-0.04907523
23	0xbd0c6370	-0.03427452
24	0x3d438c61	0.047741298
25	0xbc4feaa5	-0.012690221
26	0xbd2d9e10	-0.04238707
27	0xba9b381b	-0.0011842282
28	0xbd3cace2	-0.04606331
29	0xbd153a2a	-0.036432423
30	0x3c474473	0.012162316
31	0xbbb51d29	-0.005527158
32	0xbd145395	-0.036212523
33	0xbc2494f4	-0.010045279
34	0x3c159df9	0.009131902
35	0xbc355eba	-0.011069948
36	0xbcab57b9	-0.020915853
37	0xbc035694	-0.008016247
38	0x3cb8c3da	0.022554327
39	0x3b8d8604	0.0043189544
40	0x3d97da8e	0.07414733
41	0x3d25588d	0.04036765
42	0xbcc16523	-0.023607796
43	0xbc477829	-0.0121746445
44	0xbd8b579d	-0.0680382
45	0x3a9d6d61	0.0012010747
46	0xbbffe0bc	-0.007808773
47	0x3b098968	0.0020986442
48	0xbd5088f4	-0.05091186
49	0xbca28ed0	-0.019843489
50	0x3c8c06d1	0.017093094
51	0x3bbc600f	0.0057487558
52	0x3cee757a	0.029108752
53	0xbd0d54b9	-0.034504626
54	0x3d2f6aa2	0.042826302
55	0x3be9ae57	0.0071313786
56	0x3c883482	0.0166266
57	0xbcad6ad2	-0.0211691
58	0x3d3ec313	0.046572756
59	0x3c21ae0b	0.009868155
60	0xbcd9546a	-0.02652951
61	0x3ce32301	0.027726652
62	0xbcbc40f8	-0.022980198
63	0xbcf9780c	-0.03045275
64	0xbd5470eb	-0.0518655
65	0x3d466471	0.048435632
66	0x3c9df8a6	0.019283604
67	0x3b542353	0.0032369688
68	0x3d20eb91	0.039287154
69	0xbd3a8497	-0.045536604
70	0x3d56f070	0.052475393
71	0x3d8bbeb6	0.068234846
72	0xbbb8dd71	-0.0056416322
73	0xbcb1923d	-0.021676177
74	0x3d27840d	0.040897418
75	0xbcd0a649	-0.025469916
76	0x3cc3ce35	0.023902038
77	0x3b963a56	0.004584591
78	0xbc6092db	-0.013706888
79	0x3d4e3fa1	0.05035365
80	0xbbe09c2a	-0.0068545537
81	0x3d09d171	0.033647005
82	0x3d20fdfc	0.03930472
83	0x3bf3dea2	0.0074423114
84	0xbb7143c7	-0.003681408
85	0x3d57582d	0.052574325
86	0x3d0b38a2	0.033989556
87	0xbc85f709	-0.016353147
88	0xbd321163	-0.043473613
89	0xbc86f732	-0.016475294
90	0x3c62a97c	0.013834354
91	0x3e19c706	0.15017328
92	0x3d4e03c7	0.05029657
93	0xb98901db	-0.0002613206
94	0x3d9cdc1f	0.07659172
95	0xbcb8d260	-0.022561252
96	0xbd32c8ff	-0.043648716
97	0x3dd49da4	0.1038163
98	0xbcf6fb6f	-0.03014919
99	0xbd3ece2a	-0.046583332
100	0x3d167790	0.036735117
101	0x3e0a5f63	0.1351295
102	0x3ddb078e	0.106948
103	0x3dd4ef2a	0.103971794
104	0x3d23e5c1	0.040014032
105	0xbd0a048d	-0.033695746
106	0x3d56f1f2	0.05247683
107	0x3dfc5027	0.12319975
108	0x3c8ba438	0.017046079
109	0x3dc65b10	0.096853375
110	0x3d0f25b9	0.034948085
111	0xbd6ef05f	-0.058334704
112	0x3d124445	0.03570964
113	0xbd19ac26	-0.03751769
114	0xbc4e9382	-0.012608411
115	0x3bb20412	0.005432614
116	0x3d1dd70a	0.038535155
117	0xbb7aa305	-0.003824414
118	0x3d02ef6b	0.031966608
119	0x3c8ca9a3	0.017170733
120	0x3d96e976	0.07368748
121	0x3d446217	0.04794511
122	0xbbd96b14	-0.006635079
123	0x3c10a80a	0.008829126
124	0x3dc4c544	0.09607938
125	0x3db98a56	0.090595886
126	0xbd3f4d9e	-0.04670488
127	0x3c309afd	0.01077914
128	0x38294209	4.035424e-05
129	0xbd5f09f6	-0.05445286
130	0x3c6d0508	0.014466532
131	0xbc0f8cc9	-0.008761593
132	0xbcec0035	-0.028808692
133	0x3d9b960e	0.0759698
134	0xbcceed03	-0.0252595
135	0x3cbedbec	0.023298226
136	0xbd2bc4fd	-0.04193591
137	0x3b9f8b5b	0.0048689074
138	0x3bdcd8ac	0.0067396965
139	0xbcc3c959	-0.023899721
140	0x3c0c8fae	0.008579178
141	0x3d4ac85b	0.04950748
142	0xbd72b354	-0.059253052
143	0x3bb6e0c5	0.005580994
144	0xbca32710	-0.019916087
145	0x3ce2da29	0.027691917
146	0x3d23cc30	0.03998965
147	0xbd8de6fa	-0.06928821
148	0x3e029861	0.1275344
149	0xbc0f437a	-0.008744115
150	0xbd932dc1	-0.07186461
151	0x3d6ca0f7	0.057770696
152	0x3d497bfe	0.049190514
153	0xbc1dad39	-0.009623819
154	0x3c88d0c1	0.016701104
155	0xbc0669f2	-0.00820397
156	0x3c7dcab5	0.015490224
157	0x3d23b5d8	0.03996834
158	0x3c358a2e	0.011080308
159	0x3c466a0d	0.012110245
160	0x3d6cb7af	0.05779236
161	0x3d1955ad	0.037435222
162	0xbd83e6f3	-0.064405344
163	0x3ca64613	0.020297086
164	0xbd3e3650	-0.046438515
165	0xbd7d2096	-0.061798654
166	0xba9154de	-0.0011087914
167	0x3c92e24d	0.017930174
168	0xbd2d86d2	-0.042364903
169	0x3d6772e0	0.056506038
170	0x3bf99800	0.0076169968
171	0x3d443248	0.047899514
172	0x3c4f8422	0.01266578
173	0x3d763117	0.06010541
174	0x3c90b73c	0.017665498
175	0x3d96e6fe	0.07368277
176	0x3b98afe2	0.0046596387
177	0x3c92ea9e	0.01793414
178	0x3d940424	0.07227352
179	0x3c1ae6bd	0.009454426
180	0x3b25d822	0.0025305827
181	0x3c8747de	0.016513761
182	0xbc3e064f	-0.011598184
183	0x3d63357a	0.05547092
184	0xbd2ac1f4	-0.041688874
185	0xbb27ee09	-0.0025624058
186	0x3ccec43b	0.025240054
187	0xbbd6bf5a	-0.0065535726
188	0x3d12b62c	0.035818264
189	0xbd79b33c	-0.060961947
190	0xbd1ffebc	-0.039061293
191	0x3aaaa404	0.0013018851
192	0x3cd891b3	0.026436662
193	0xbd8307c3	-0.06397965
194	0x3b2e2f4d	0.0026578486
195	0xbc7832d2	-0.015148835
196	0xbd3eea52	-0.046610184
197	0xbcbf3adc	-0.023343496
198	0xbbc2cfb6	-0.005945171
199	0xbcbea898	-0.023273751
200	0x3be7f310	0.007078536
201	0x3dab3783	0.083601974
202	0x3cd9277a	0.026508082
203	0x3e09d72c	0.13460988
204	0xbba0dd16	-0.004909168
205	0xbc36a7d9	-0.011148416
206	0x3d82dc16	0.06389634
207	0x3c583900	0.013197184
208	0xbd345478	-0.04402587
209	0xbca1805e	-0.01971453
210	0x3d0cac82	0.034344204
211	0xbd31edf3	-0.043439817
212	0xbd074d0b	-0.03303246
213	0x3c0f1d29	0.00873498
214	0x3c4e1c44	0.012579981
215	0x3b4be383	0.003111095
216	0xbccf282b	-0.025287708
217	0xbd45d64b	-0.04830007
218	0xbd0f45b9	-0.034978602
219	0xbd120b13	-0.035655092
220	0xbcd15d0e	-0.025557067
221	0x3c8e3254	0.017357983
222	0xbcc24500	-0.023714542
223	0x3ba4adb8	0.0050255917
224	0xbaa83bee	-0.0012835243
225	0x3c8e466c	0.017367564
226	0x3c293d02	0.010329487
227	0xbc83b2c1	-0.016076447
228	0x3bb9ebab	0.0056738458
229	0x3cbefe00	0.023314476
230	0x3bc2e03b	0.0059471405
231	0xbc494db7	-0.012286595
232	0x3d2a6610	0.04160124
233	0xbd0cf55e	-0.034413688
234	0x3b930cca	0.0044876086
235	0xbc9696fb	-0.01838254
236	0x3b371ca5	0.0027940657
237	0xbd5522e9	-0.052035246
238	0xbc8fa373	-0.017533993
239	0x3d5912ba	0.052996375
240	0xbd0f3bd3	-0.034969162
241	0x3cb1b16c	0.021691047
242	0xbbbc7d1e	-0.00575222
243	0xbce95098	-0.028480813
244	0xbbbeb5c5	-0.0058200085
245	0x3ceec6b1	0.029147478
246	0xbdac2d25	-0.08407048
247	0xbd183685	-0.03716137
248	0x3d64a8bd	0.055824984
249	0x3cb1265c	0.021624736
250	0x3d057b58	0.032588333
251	0x3c94ba05	0.018155107
252	0xbd22cc8a	-0.039745845
253	0xbd6b5d13	-0.05746181
254	0xbbb329f9	-0.00546765
255	0xbd933a5d	-0.07188866

encoder.1.0.bias f4 [64]
0	0x3c9c390c	0.01907017
1	0xbb9ced84	-0.0047890563
2	0x3d360425	0.044437546
3	0xbb78006a	-0.0037842044
4	0x3cf7ca60	0.030247867
5	0xbc1f951b	-0.009740139
6	0xbcf4772f	-0.029841987
7	0xbcfe55b9	-0.031046735
8	0xbcf7b975	-0.0302398
9	0x3bf20165	0.00738542
10	0xbceb53ff	-0.028726576
11	0xbb4697e3	-0.0030302934
12	0xbb0670ab	-0.0020513933
13	0xbd2949df	-0.041330215
14	0xbc91d940	-0.017803788
15	0x3c813b07	0.015775217
16	0xbc4b39d1	-0.012403921
17	0xbcdb8893	-0.026798522
18	0x3b16613a	0.0022946135
19	0x3d04a1ac	0.032380745
20	0x3a81ebaa	0.0009912152
21	0x3a172799	0.00057660934
22	0x3c9968bc	0.018726699
23	0x3cd5b350	0.02608648
24	0xbd054041	-0.03253198
25	0xbaee2484	-0.0018168841
26	0xbc72b599	-0.014813804
27	0x3cbe6bf7	0.023244841
28	0x3b8bddd3	0.004268387
29	0xbbf318e7	-0.00741874
30	0xbc1fcb57	-0.00975307
31	0x3cb6f3b7	0.02233301
32	0xbc476bc2	-0.012171688
33	0x3bc5168e	0.0060146516
34	0xbb380e7d	-0.0028084808
35	0xbc1c5116	-0.009540817
36	0x3c6f9dfa	0.014625067
37	0xbc08d11b	-0.008350636
38	0x3ccd7785	0.025081405
39	0x3d33c194	0.043885782
40	0x3c10815f	0.008819907
41	0xbc1d0d75	-0.009585728
42	0x3bdf05e9	0.0068061245
43	0xbad6a08e	-0.0016374753
44	0xbb3045d3	-0.0026897087
45	0x3d1ab88c	0.037773654
46	0xbd089b2c	-0.03335111
47	0xbd16a5eb	-0.036779325
48	0x3d41a4a9	0.047276173
49	0x398eb94b	0.00027222405
50	0x3d29e748	0.041480333
51	0xbce945bb	-0.028475633
52	0x3c8dc923	0.017307824
53	0x3d1fc5c7	0.039006975
54	0x3d490cad	0.049084354
55	0xbcb97827	-0.0226403
56	0xbd17b3fd	-0.037036885
57	0xbc0e080c	-0.008668911
58	0xbbabc44b	-0.005241906
59	0xbcf372ad	-0.029717768
60	0x3b8d7d88	0.004317943
61	0xbd385c77	-0.045010056
62	0x3c997f78	0.01873754
63	0xbcce8010	-0.02520755

encoder.1.1.weight f4 [64]
0	0x3f88c753	1.0685829
1	0x3f81a2d3	1.0127815
2	0x3f6c6db0	0.9235487
3	0x3f7d99f3	0.9906303
4	0x3f8242a0	1.0176582
5	0x3f85229d	1.0401188
6	0x3f7e9e00	0.9945984
7	0x3f789c2d	0.97113305
8	0x3f725c64	0.94672227
9	0x3f8ea7ec	1.1144996
10	0x3f779720	0.96714973
11	0x3f851b5a	1.0398972
12	0x3f8308bf	1.0237044
13	0x3f74b9bb	0.955959
14	0x3f86664b	1.0499967
15	0x3f7ced56	0.98799646
16	0x3f766a6b	0.9625613
17	0x3f78bd46	0.9716381
18	0x3f807d80	1.00383
19	0x3f898d0d	1.074617
20	0x3f7d2158	0.98879004
21	0x3f6f1afd	0.93400556
22	0x3f6e74ab	0.9314677
23	0x3f7b51be	0.98171604
24	0x3f7f1ca5	0.99653083
25	0x3f7d29b5	0.98891765
26	0x3f6dd59a	0.92904055
27	0x3f7b19a9	0.9808603
28	0x3f7dd372	0.99150765
29	0x3f84d774	1.0378251
30	0x3f7e08e3	0.9923231
31	0x3f7baaf1	0.9830771
32	0x3f808ed6	1.004359
33	0x3f812179	1.008834
34	0x3f836a40	1.02668
35	0x3f764e8d	0.9621361
36	0x3f843304	1.0328069
37	0x3f850cf8	1.0394583
38	0x3f7277e6	0.947142
39	0x3f80986c	1.0046515
40	0x3f822eb0	1.0170498
41	0x3f72860c	0.9473579
42	0x3f841bd7	1.0320996
43	0x3f73664e	0.9507798
44	0x3f822a5a	1.0169175
45	0x3f7c79e7	0.9862351
46	0x3f6eb1bb	0.93239945
47	0x3f7a5022	0.9777852
48	0x3f63997d	0.8890608
49	0x3f829cea	1.0204136
50	0x3f82666a	1.0187504
51	0x3f870aa2	1.055012
52	0x3f8642fb	1.0489191
53	0x3f838f00	1.0278015
54	0x3f901d67	1.1258973
55	0x3f80facd	1.0076538
56	0x3f7c427e	0.9853896
57	0x3f871e57	1.0556134
58	0x3f72197c	0.94570136
59	0x3f84ebdb	1.0384477
60	0x3f80dde0	1.0067711
61	0x3f8e436b	1.1114324
62	0x3f690e11	0.9103709
63	0x3f81e50a	1.0148022

encoder.1.1.bias f4 [64]
0	0xbe1d843a	-0.15382472
1	0xbde70edb	-0.1128213
2	0xbe273429	-0.16328491
3	0xbdd22982	-0.10261823
4	0xbdc76157	-0.09735363
5	0xbde99fd0	-0.11407435
6	0xbc528632	-0.0128493775
7	0xbd8cdcd4	-0.06878057
8	0xbd0e673a	-0.034766413
9	0xbe87f35c	-0.26552856
10	0xbd272168	-0.040803343
11	0xbdf38b7f	-0.11891841
12	0xbdfb208e	-0.12262069
13	0xbe02922a	-0.1275107
14	0xbd926f95	-0.07150189
15	0xbd25c988	-0.0404754
16	0xbdc3531a	-0.09537335
17	0xbe18343c	-0.14863676
18	0xbd5e628b	-0.054293197
19	0xbe0915cc	-0.13387221
20	0xbceab7c2	-0.028652076
21	0xbd9f93eb	-0.07791885
22	0xbdb1b7cb	-0.08677634
23	0xbe5bb504	-0.2145577
24	0xbe16e2f7	-0.14735018
25	0xbd997de8	-0.07494718
26	0xbe46b8c6	-0.19406423
27	0xbddca415	-0.10773484
28	0xbbef499a	-0.007302475
29	0xbda201a9	-0.07910473
30	0xbd45cdaa	-0.04829184
31	0xbdbd32ae	-0.09238182
32	0xbd054c7b	-0.03254364
33	0xbe42efa0	-0.19036722
34	0xbe3443b1	-0.17603947
35	0xbdcf2d86	-0.10116105
36	0xbe3bc1b4	-0.1833561
37	0xbd63d703	-0.055624973
38	0xbe01f86e	-0.12692425
39	0xbdaf3b8d	-0.0855628
40	0xbdbc5fe6	-0.09197979
41	0xbe4d6ee3	-0.20061831
42	0xbd94f2e2	-0.07272889
43	0xbdd562c8	-0.10419232
44	0xbdf351a6	-0.118808076
45	0xbce26996	-0.027638238
46	0x3b985e40	0.0046499074
47	0xbd8f8863	-0.070084356
48	0xbe0151da	-0.1262888
49	0xbc0872c8	-0.008328147
50	0xbd8496b2	-0.06474055
51	0xbd8a5dc2	-0.06756164
52	0xbd943620	-0.07236886
53	0xbe145961	-0.1448722
54	0x3cc245d5	0.02371494
55	0xbe12fe4b	-0.14354818
56	0xbe18ad0a	-0.14909759
57	0x3d5a73d0	0.053333104
58	0xbda96f22	-0.0827315
59	0xbcc33635	-0.023829559
60	0xbddb51fe	-0.10708998
61	0xbe1b09be	-0.15140435
62	0xbdda070c	-0.10645875
63	0xbd88140a	-0.06644447

encoder.1.1.running_mean f4 [64]
0	0x3fa125f5	1.2589709
1	0x3f3a9fa4	0.7289984
2	0x3f64ee9b	0.89426583
3	0x3ce50aad	0.027959192
4	0x3ecc0a0a	0.3985141
5	0x3fb1b948	1.3884668
6	0x3cf88a49	0.030339377
7	0xbf289eb2	-0.6586715
8	0xbf61689a	-0.88050234
9	0x3f9951a4	1.197804
10	0xbdbd84a0	-0.09253812
11	0xbf849844	-1.0358968
12	0xbf97dcf5	-1.1864306
13	0x3e68f295	0.22748788
14	0xbe654109	-0.2238809
15	0xbf085e6f	-0.53269094
16	0x3fb4e00b	1.4130872
17	0xbf88d3fb	-1.0689691
18	0xbf1cf3d1	-0.61309534
19	0xbeaf55a5	-0.3424503
20	0xbe995b65	-0.2995254
21	0xbedcca46	-0.43123072
22	0x3f0313cb	0.51202077
23	0x3dd9d8ed	0.106370784
24	0xbe08bd8a	-0.13353553
25	0x3e8286d4	0.2549349
26	0x3f31df81	0.69481665
27	0xbeb4e62c	-0.35331857
28	0xbf277752	-0.65416443
29	0xbf167fb2	-0.587886
30	0x3dd531ed	0.10409913
31	0x3ee391cd	0.44447175
32	0xbf2faa1c	-0.6861894
33	0xbf6b5785	-0.9193042
34	0x3f35081f	0.70715517
35	0x3e10a854	0.14126712
36	0xbe3b608f	-0.18298553
37	0x3db165c7	0.086619906
38	0x3e883f5c	0.2661084
39	0xbf864dd8	-1.0492506
40	0xbf1ca16f	-0.6118383
41	0x3ecdc6cd	0.40190735
42	0xbf1ea511	-0.6197062
43	0xbe351a3d	-0.1768579
44	0x3cf5fc12	0.030027423
45	0xbfa8389a	-1.3142273
46	0x3ba83921	0.0051337634
47	0xbfe9bb8b	-1.8260359
48	0x3e00a29e	0.12562034
49	0xbee06305	-0.43825546
50	0xbebfaec8	-0.37438035
51	0xbef967da	-0.48712045
52	0xbf102f0d	-0.56321794
53	0xbf991d0c	-1.1961989
54	0xc03978ac	-2.8979902
55	0xbef7901d	-0.48352137
56	0xbe9c4887	-0.30524084
57	0xbde4fdb0	-0.111811996
58	0x3da5200c	0.08062753
59	0x3e55e180	0.20886803
60	0xbe03c763	-0.12869029
61	0x3f26968d	0.6507347
62	0x3f91e92b	1.1399282
63	0xbf852d50	-1.0404453

encoder.1.1.running_var f4 [64]
0	0x3f5b00c2	0.8554803
1	0x3ff1d183	1.8892063
2	0x3f9fe772	1.2492507
3	0x3f7ac260	0.9795284
4	0x3f810e17	1.0082425
5	0x3f5150ae	0.8176373
6	0x3fe12390	1.7588978
7	0x3f944f63	1.1586727
8	0x3f7838d5	0.9696172
9	0x3f47ef3e	0.7809943
10	0x3fb2a483	1.3956455
11	0x4010ffc4	2.2656107
12	0x401b8815	2.4301808
13	0x3f658d92	0.89669144
14	0x3f8dfe38	1.1093206
15	0x3fb4627c	1.4092555
16	0x402f4de0	2.739128
17	0x3fc873f2	1.5660384
18	0x3fc22cf5	1.516997
19	0x3fa0c06c	1.2558722
20	0x3f558f17	0.8342146
21	0x3fbf35d1	1.4938298
22	0x40048d22	2.071114
23	0x3f865ab7	1.0496434
24	0x3ff98d8b	1.949632
25	0x3f7fb3e8	0.9988389
26	0x402c1009	2.6884787
27	0x3fde6657	1.7374982
28	0x3faac5d9	1.3341628
29	0x3f7f62ef	0.99760336
30	0x3fa1d128	1.2641954
31	0x3fe1b89c	1.7634463
32	0x3f5b640e	0.85699546
33	0x40372ee6	2.8622375
34	0x3f378146	0.7168163
35	0x3fa56db3	1.2924103
36	0x3fa08716	1.2541225
37	0x3f60f1f3	0.87869185
38	0x3ff5bc82	1.9198153
39	0x401a73d3	2.4133193
40	0x3f7fd420	0.9993305
41	0x400f1148	2.2354298
42	0x400df0ad	2.2178147
43	0x3f3ac5b3	0.72957915
44	0x3fb9c77b	1.4514002
45	0x400b5122	2.176827
46	0x3f6f6670	0.9351568
47	0x405788bc	3.3677206
48	0x3f23269e	0.637308
49	0x40072e99	2.112219
50	0x3ff1d3a3	1.8892711
51	0x3fcc79a2	1.5974619
52	0x404795fa	3.1185288
53	0x4038caf6	2.8873878
54	0x40b36c4a	5.606969
55	0x3fb80662	1.4376948
56	0x3f92449d	1.1427189
57	0x3f607712	0.87681687
58	0x3fce8614	1.6134667
59	0x3f483657	0.78207916
60	0x3fbafc93	1.460833
61	0x3f6d05d6	0.9258703
62	0x3ff4ce27	1.9125413
63	0x3ffcb896	1.9743831

encoder.2.0.weight f4 [64, 64, 3, 3]
0	0x3c38dcec	0.011283141
1	0x3cc08c97	0.023504538
2	0x3d51618e	0.051118426
3	0x3c89ea3d	0.016835326
4	0xbb7e519a	-0.0038805963
5	0xbdca58b5	-0.09880201
6	0x3ce5faba	0.028073657
7	0x3d408e41	0.047010664
8	0x3c205c11	0.009787575
9	0xbba7d509	-0.0051218313
10	0x3cd0334f	0.02541509
11	0x3d6147a1	0.05499995
12	0xbbe09476	-0.0068536354
13	0xbbdffe59	-0.0068357405
14	0x3c4f89e4	0.012667153
15	0x3d28532a	0.041094936
16	0x3c23f013	0.010005969
17	0xbc9778fa	-0.018490303
18	0xbb899a96	-0.0041993363
19	0x3d8d3d34	0.06896439
20	0x3d87b04d	0.066254236
21	0x3c47cf91	0.012195484
22	0x3ce61f22	0.028091017
23	0x3d1396e3	0.03603257
24	0xbc820416	-0.015871089
25	0x3cbbb760	0.022914588
26	0x3c8d90e9	0.017281013
27	0x3c0fadcd	0.008769465
28	0xbb5b2227	-0.0033437104
29	0x3cb4b711	0.02205995
30	0x3b1414e0	0.002259545
31	0xb9c6807d	-0.00037861234
32	0x3c3e9b44	0.011633698
33	0x3d62dcf5	0.055386502
34	0x3ca40207	0.020020498
35	0x3b8eff4f	0.0043639312
36	0xbc8fec73	-0.017568802
37	0x3d54f7e9	0.051994238
38	0xbd57317c	-0.052537426
39	0x3d83f121	0.06442476
40	0x3d803fb2	0.06262149
41	0xbd67025b	-0.05639873
42	0x3c9342c1	0.017976167
43	0x3d4a209e	0.049347512
44	0xbd3e163c	-0.046407923
45	0x3d94b4e6	0.07261066
46	0x3d585882	0.052818783
47	0x3c628143	0.013824764
48	0x3d0a4fb9	0.033767436
49	0x3c441703	0.011968377
50	0x3c1cef47	0.009578533
51	0xbcdb1774	-0.026744582
52	0xbbf1484e	-0.0073633557
53	0xbba2553e	-0.0049540093
54	0x3c812f07	0.015769495
55	0xbce31aeb	-0.027722796
56	0xbd2d3617	-0.042287912
57	0x3c1a4a51	0.0094171325
58	0x3c2aacaf	0.010417148
59	0xbd0d30dd	-0.034470428
60	0xbcb9d74d	-0.022685671
61	0x3cde11ae	0.02710804
62	0xbd5b233c	-0.0535004
63	0x3c9837f3	0.018581366
64	0xbcc507b9	-0.024051534
65	0xbce49c54	-0.027906574
66	0xbc2712c8	-0.010197349
67	0xbd384aa8	-0.044993073
68	0x3b5f4e76	0.0034073866
69	0xbd0fc0fd	-0.035096157
70	0xbd813441	-0.06308795
71	0xbd2c91e5	-0.042131323
72	0x3c7ae805	0.015314107
73	0xbcea101c	-0.028572135
74	0x3bf2cdd4	0.0074097905
75	0x3d1aa5dc	0.037755832
76	0xb883962b	-6.274538e-05
77	0x3d6972c2	0.056994207
78	0x3d3ef4fd	0.046620358
79	0x3da32bdc	0.0796735
80	0x3cc8e655	0.024523893
81	0x3d3f2ac6	0.04667165
82	0x3c477171	0.012173043
83	0xbcdb8ef9	-0.026801573
84	0x3d4c2bd6	0.049846493
85	0x3d118766	0.035529517
86	0xbd89bab1	-0.06725062
87	0xbc665763	-0.014058921
88	0xbd29caa1	-0.041453008
89	0xbd52d586	-0.051473163
90	0xbcbd9a9c	-0.023145013
91	0x39c484dd	0.00037483024
92	0x3d19b724	0.037528172
93	0xbca60b21	-0.020268979
94	0x3d1a8d04	0.03773214
95	0x3d35ccb8	0.04438469
96	0x3bb3573e	0.0054730466
97	0xbcac49ee	-0.021031346
98	0x3bd3d0c6	0.0064640967
99	0xbdb9bb4e	-0.09068929
100	0xbcec3a2a	-0.028836329
101	0xbc498ba0	-0.012301356
102	0xbcce2c12	-0.025167499
103	0xbcb2ae05	-0.021811495
104	0xbd69c67b	-0.05707405
105	0xbcd9f729	-0.026607113
106	0x3d848888	0.06471354
107	0xbd77bdb3	-0.060483646
108	0xbcbfc1d1	-0.023407849
109	0x3cd065ad	0.025439108
110	0xbb52e3c3	-0.0032179214
111	0xbda0fd19	-0.078607745
112	0xbc5a343b	-0.013318117
113	0x3d356551	0.044286076
114	0xbd0b246b	-0.033970278
115	0x3cf2b5ab	0.029627642
116	0x3cf1b1c7	0.029503716
117	0x3a8074db	0.0009800451
118	0x3d85e91d	0.065386035
119	0x3bd04a4c	0.006356513
120	0x3d70175b	0.058616024
121	0x3d2982fb	0.04138468
122	0x3d7acb83	0.06122924
123	0x3c91b96f	0.017788617
124	0x3d961c3c	0.07329604
125	0x3d3b55d3	0.045736145
126	0x3cba53e0	0.022745073
127	0x3d2776b7	0.0408847
128	0x3ce034dd	0.027368957
129	0xbbd9f830	-0.0066519007
130	0x3dab2191	0.08356012
131	0x3d814121	0.063112505
132	0xbbd9a4e0	-0.006641969
133	0x3da55d5e	0.08074449
134	0x3c0f3063	0.008739564
135	0xbdd49f78	-0.10381979
136	0xbca0e6de	-0.019641336
137	0xbccccb8f	-0.024999408
138	0x3d03bc10	0.032161772
139	0x3b2c0774	0.002624956
140	0xbd0131e3	-0.031541716
141	0x3c85fb6c	0.016355239
142	0x3d6361c0	0.055513144
143	0x3b8e2a4e	0.004338539
144	0xbcc4763e	-0.023982164
145	0x3cf7ee8a	0.030265111
146	0xbd067286	-0.03282406
147	0x3d17501f	0.036941644
148	0x3d8c2a68	0.06844026
149	0xbd6cbf63	-0.057799708
150	0x3d96a109	0.07354934
151	0x3d4ceea2	0.050032265
152	0x3c642b65	0.013926362
153	0xbd005758	-0.031333297
154	0xbc2c0664	-0.0104995705
155	0x3bd11f1e	0.0063818833
156	0xbc5aafcb	-0.013347576
157	0xbaf3a8e1	-0.0018589759
158	0x3c58533d	0.013203439
159	0xbcb2b1b3	-0.02181325
160	0x3d3f2098	0.046661943
161	0xbc769927	-0.015051163
162	0x3c3b2d0f	0.011424317
163	0x3c161b60	0.0091618
164	0x3d365356	0.04451307
165	0x3d0f6bf8	0.035015076
166	0xbd50e43d	-0.050998915
167	0x3d1cc95a	0.03827796
168	0xbc3d7d4d	-0.011565519
169	0xbc9adb66	-0.018903445
170	0xbcf93ae6	-0.030423593
171	0x3c9dfd95	0.019285956
172	0xbc65fa7b	-0.01403677
173	0xbc5e0dc2	-0.013553085
174	0xbc96ef57	-0.018424673
175	0x3b81a0c0	0.0039559305
176	0xbd124639	-0.0357115
177	0x3cd47bad	0.02593788
178	0x3b38ecfd	0.0028217428
179	0xbd5fff6b	-0.054686945
180	0xbcc8b783	-0.024501568
181	0x3bb85d20	0.0056263357
182	0x3c406d3b	0.011744793
183	0xbd0181bd	-0.03161787
184	0xbd5a96a5	-0.053366322
185	0x3d1f076b	0.038825434
186	0x3ac573df	0.001506444
187	0xbc6d96bc	-0.01450127
188	0x3bd90567	0.0066229585
189	0xbbe61617	-0.0070216763
190	0x3daae75d	0.0834491
191	0xbcee3e99	-0.029082583
192	0x3cd2b8f0	0.02572295
193	0x3d7359cd	0.059411813
194	0xbc82e88e	-0.015980031
195	0x3d092d6c	0.033490583
196	0x3d8cd8d4	0.06877294
197	0x3cbe279b	0.023212245
198	0x3c837715	0.016047994
199	0xbcf725b2	-0.030169342
200	0xbc790383	-0.015198591
201	0x3c2b8cb7	0.010470561
202	0xbbb2c50b	-0.0054556183
203	0xbc079857	-0.008276067
204	0x3d20cd8d	0.03925853
205	0x3aa3378a	0.0012452465
206	0xbd15a0e0	-0.036530375
207	0x3b019094	0.0019770013
208	0x3ccbc935	0.024876216
209	0x3ca06011	0.019577058
210	0xbd5f1736	-0.054465495
211	0xb9500ba6	-0.00019840765
212	0x3c455218	0.012043498
213	0xbc33fa38	-0.01098495
214	0x3bac4f46	0.0052584736
215	0xbd2043c4	-0.039127126
216	0x3c75f664	0.015012357
217	0xbb2a830c	-0.0026018051
218	0x3d449f4d	0.048003484
219	0xbd39d8dc	-0.04537283
220	0xbd729f26	-0.059233807
221	0xbd50e9c1	-0.051004175
222	0xbc146d42	-0.009059252
223	0xbd0352dd	-0.032061446
224	0xbc45e0b7	-0.012077502
225	0x3c9b2ce8	0.018942311
226	0x3d077336	0.033068858
227	0xbd245612	-0.040121146
228	0x3c3439f7	0.011000148
229	0x3d9828e0	0.07429671
230	0x3bff0b1b	0.0077833063
231	0x3cfc574a	0.030803341
232	0xbd5f4cb5	-0.054516513
233	0xbb16d67d	-0.0023016029
234	0x3c5e15ef	0.013555034
235	0x3d32c609	0.043645892
236	0x3d0e9b18	0.034815878
237	0xbce4f614	-0.02794937
238	0x3d7a1571	0.061055604
239	0x3d2709cb	0.040780824
240	0x3c240368	0.010010578
241	0x3d003bb1	0.031306926
242	0xbd219ca5	-0.03945603
243	0xbd5aac1f	-0.053386804
244	0x3c2f5e2e	0.0107036065
245	0x3cb7fad6	0.022458475
246	0xbc8bd4fc	-0.017069332
247	0xbcacdce8	-0.02110143
248	0xbd3518b4	-0.04421301
249	0x3bc10563	0.0058905347
250	0xbd30c7f4	-0.04315944
251	0xbdbf1e0c	-0.09331903
252	0xbd0c32cb	-0.034228127
253	0xbd9526a1	-0.072827585
254	0xbc903ceb	-0.017607173
255	0x3d9e5b28	0.077322304

encoder.2.0.bias f4 [64]
0	0xbcac712b	-0.021050056
1	0xbb9dd1a7	-0.0048162523
2	0xbc5179db	-0.0127854
3	0xbd0bc86f	-0.034126695
4	0xbb83a6ca	-0.0040176855
5	0xbb3da702	-0.0028938656
6	0x3d043a8e	0.032282405
7	0xbd4b14af	-0.049580272
8	0xbbc99fef	-0.006153099
9	0x3d254675	0.040350396
10	0x3c8e17dc	0.017345361
11	0xbcab680d	-0.020923639
12	0xbced318f	-0.028954295
13	0xbc642e27	-0.013927019
14	0x3a32197b	0.0006793958
15	0xbb484376	-0.0030557788
16	0x3c47a335	0.012184908
17	0x3d127478	0.035755605
18	0x3d1645e8	0.03668776
19	0xbd23a7f3	-0.03995509
20	0xbca73b12	-0.02041391
21	0xbcbf1bc2	-0.023328666
22	0xbc6b7035	-0.014370014
23	0xbbb54305	-0.005531671
24	0xbc4d7d11	-0.012542025
25	0xba669455	-0.0008795907
26	0xbcc33d25	-0.023832867
27	0x3c0d7723	0.008634361
28	0xbc3ccc9e	-0.011523394
29	0xbcd21a18	-0.025647208
30	0xbba6efa8	-0.005094487
31	0xba86f027	-0.001029496
32	0x3d0e5eb7	0.034758296
33	0xbbb9476d	-0.0056542666
34	0xbd1e50b8	-0.0386512
35	0x3bbcc1c8	0.005760405
36	0x3cb43f1a	0.022002745
37	0x3cb3f060	0.021965206
38	0xbc3b45b4	-0.011430193
39	0xbbae974f	-0.005328096
40	0xbaa0e657	-0.0012275678
41	0xbd098602	-0.033575065
42	0x3c9b93dc	0.018991403
43	0xbd30856b	-0.043095987
44	0xbcdfa47f	-0.027300118
45	0xbbc37bdf	-0.0059656943
46	0x3cf97d34	0.03045521
47	0x3cb65935	0.022259334
48	0xbcef9972	-0.029247973
49	0x3cf328b2	0.029682491
50	0x3c2cfe01	0.010558606
51	0xbcf0c3e6	-0.029390287
52	0x3cdfc6bc	0.027316444
53	0xbd05d6b9	-0.03267548
54	0xbc7fc766	-0.015611505
55	0xbcd094ae	-0.025461521
56	0x3b8f61e3	0.0043756827
57	0xbd1c963a	-0.038229205
58	0xbd1f78f1	-0.038933698
59	0x3d028c6a	0.03187219
60	0x3c2058ed	0.009786827
61	0xbcf88163	-0.030335134
62	0xbb9c6337	-0.0047725695
63	0xbcd022ca	-0.025407214

encoder.2.1.weight f4 [64]
0	0x3f7d73b4	0.99004674
1	0x3f895dc0	1.0731735
2	0x3f7262d6	0.9468206
3	0x3f88572a	1.06516
4	0x3f846ad5	1.0345103
5	0x3f854077	1.0410298
6	0x3f88eaea	1.069669
7	0x3f8260b9	1.0185767
8	0x3f70cb26	0.9405998
9	0x3f7651bd	0.9621847
10	0x3f7cf73b	0.98814744
11	0x3f5d988b	0.8656089
12	0x3f7f303c	0.99682975
13	0x3f75ab6a	0.9596468
14	0x3f748721	0.9551869
15	0x3f71321d	0.9421709
16	0x3f77d2cc	0.96806026
17	0x3f790283	0.9726946
18	0x3f7b40b4	0.98145604
19	0x3f80d0fc	1.0063777
20	0x3f819128	1.0122423
21	0x3f7468f9	0.95472676
22	0x3f6f63f9	0.9351192
23	0x3f74cc4e	0.95624244
24	0x3f7dbfbd	0.99120694
25	0x3f8beb56	1.0931194
26	0x3f8d1187	1.1020974
27	0x3f8bd923	1.092564
28	0x3f831eab	1.0243734
29	0x3f862c89	1.0482341
30	0x3f8225ad	1.0167748
31	0x3f7926b9	0.9732471
32	0x3f8328be	1.0246809
33	0x3f83e10b	1.0303053
34	0x3f771e52	0.9653064
35	0x3f877421	1.0582315
36	0x3f751d66	0.95747983
37	0x3f7dbf13	0.9911968
38	0x3f793df6	0.9736017
39	0x3f858ae0	1.0433006
40	0x3f85c7e3	1.0451626
41	0x3f700558	0.93758154
42	0x3f8344f6	1.025542
43	0x3f81b9f0	1.0134869
44	0x3f82807f	1.0195464
45	0x3f7dc094	0.99121976
46	0x3f8009d1	1.0002996
47	0x3f7cdd9d	0.98775655
48	0x3f7245fa	0.94638026
49	0x3f704e14	0.9386914
50	0x3f73fb69	0.95305496
51	0x3f8ac7aa	1.0842183
52	0x3f73f5f0	0.95297146
53	0x3f7b42d6	0.9814886
54	0x3f82b3cb	1.0211118
55	0x3f8bf63a	1.0934517
56	0x3f80c2bf	1.0059432
57	0x3f80e9c3	1.0071338
58	0x3f6d9d25	0.9281791
59	0x3f77bc7f	0.96772
60	0x3f6d7c75	0.9276803
61	0x3f8341ba	1.0254433
62	0x3f743a19	0.9540115
63	0x3f861252	1.0474341

encoder.2.1.bias f4 [64]
0	0xbe132624	-0.14370018
1	0xbdf351e4	-0.11880854
2	0xbcf43067	-0.029808236
3	0xbdaf8157	-0.085695915
4	0xbdc6ce98	-0.097073734
5	0xbe04bf6b	-0.12963645
6	0xbe3ce05c	-0.18444961
7	0xbdf5ad2f	-0.11995923
8	0xbe348e2b	-0.17632358
9	0xbdf01cc9	-0.1172424
10	0xbcca3d96	-0.02468757
11	0xbc68324c	-0.014172148
12	0xbe048dc1	-0.129447
13	0xbd822e13	-0.06356444
14	0xbe3d4ff5	-0.18487532
15	0x3da6d2ee	0.081457004
16	0xbdbaae51	-0.091152795
17	0xbe206c6e	-0.15666363
18	0xbda83057	-0.08212345
19	0xbdcfb1f0	-0.10141361
20	0xbe1261e0	-0.14295149
21	0xbd9656e8	-0.07340795
22	0xbe0c2094	-0.13684303
23	0xbd936018	-0.07196063
24	0xbe062f98	-0.13104093
25	0xbcb30891	-0.02185467
26	0xbc95cc45	-0.01828588
27	0xbd3a9c51	-0.04555923
28	0xbe1f53f2	-0.15559366
29	0xbd76b3ee	-0.060230188
30	0xbd911ab5	-0.07085172
31	0xbe09921c	-0.13434643
32	0xbd9b1211	-0.07571805
33	0xbdeff516	-0.11716668
34	0xbdbec57d	-0.09315012
35	0xbdebb3eb	-0.11508926
36	0xbdadf2c9	-0.08493573
37	0xbe1b702e	-0.15179512
38	0xbdd1ac7e	-0.102379784
39	0xbd915678	-0.07096571
40	0x3c29478e	0.010332001
41	0xbda9ab81	-0.08284665
42	0xbdc49e47	-0.096005015
43	0xbd91e9ba	-0.07124658
44	0x3b619c9a	0.0034425617
45	0xbdc42362	-0.09577061
46	0xbc793f53	-0.015212852
47	0xbdb3e9f2	-0.08784856
48	0xbe0fd649	-0.14046587
49	0xbddfab7b	-0.10921379
50	0xbdf5759c	-0.11985323
51	0xbe342ef7	-0.1759604
52	0xbd5fdaf9	-0.054652188
53	0xbe3c510c	-0.18390292
54	0x3d276ed5	0.040877182
55	0xbe0ce90b	-0.13760774
56	0xbc80d6a4	-0.015727349
57	0xbdefea9f	-0.11714672
58	0xbd51b82f	-0.05120104
59	0xbe147a7e	-0.14499852
60	0xbe0f2f45	-0.13982876
61	0xbd2e6246	-0.04257419
62	0xbe099338	-0.13435066
63	0xbdd7a5ba	-0.10529657

encoder.2.1.running_mean f4 [64]
0	0x3f0e8bec	0.55682254
1	0xbe87f7c9	-0.26556233
2	0xbf831827	-1.0241746
3	0x3eab6281	0.3347359
4	0x3fb22ca4	1.3919873
5	0xbf1a07b1	-0.60167986
6	0x3ef2dc34	0.47433627
7	0x3ed814aa	0.42203265
8	0x3dc4d4fa	0.096109346
9	0xbf43ee17	-0.7653517
10	0x3eab46c0	0.33452415
11	0x400bd966	2.185144
12	0xbf751036	-0.9572786
13	0x3ee61dfd	0.44944754
14	0x3e845b19	0.25850752
15	0x3f40455e	0.75105846
16	0x3e55bc3e	0.2087259
17	0xbf08b54b	-0.5340163
18	0xbfb21a5d	-1.3914295
19	0x3fb6fa3c	1.4295115
20	0xbf5545e3	-0.83309764
21	0xbce7309b	-0.02822142
22	0xbfe30a46	-1.773751
23	0x3f6af20b	0.9177558
24	0x3dad1bcf	0.0845257
25	0xbecbbe8e	-0.3979382
26	0xc00d4157	-2.207113
27	0x3dff4766	0.1246479
28	0xbd43d51a	-0.04781065
29	0xc0504b4e	-3.2545962
30	0xbf34adb6	-0.7057756
31	0xbe97786a	-0.29584056
32	0x3de4a9df	0.11165213
33	0x3f659577	0.8968119
34	0x3d12b939	0.035821173
35	0xbed4a4e2	-0.41532046
36	0x3e116813	0.14199857
37	0x3eaebe66	0.34129637
38	0x3fbde413	1.4835228
39	0x3efda0c8	0.4953673
40	0xc0025dbe	-2.0369716
41	0xbeeebc23	-0.46627912
42	0xbea397b6	-0.31951684
43	0x3d0b0f27	0.033949997
44	0x3e74a77d	0.23892017
45	0x3f55bbbe	0.83489597
46	0x3f332ee4	0.69993424
47	0xbf174415	-0.5908826
48	0xbee4caf2	-0.44686085
49	0x3fd32682	1.6496127
50	0x40157a20	2.335579
51	0xbed81218	-0.42201304
52	0xbf6f6bd7	-0.93523926
53	0x3f1591d6	0.58425653
54	0x3f0dd2d7	0.5539984
55	0xbf4a7031	-0.7907744
56	0x3ee43a17	0.4457557
57	0x3e35b562	0.17744973
58	0x3fe71dc9	1.8055965
59	0x40159137	2.3369882
60	0x3f2e2b03	0.6803438
61	0xc03ecd7d	-2.981292
62	0xbda14da0	-0.07876134
63	0xbdc3d9e9	-0.095630474

encoder.2.1.running_var f4 [64]
0	0x408d2858	4.411175
1	0x404c7de1	3.195183
2	0x40a33623	5.1003585
3	0x409d995f	4.924972
4	0x40890511	4.2818685
5	0x40841689	4.127751
6	0x401d790c	2.460513
7	0x4014be7e	2.3241267
8	0x4007d4f0	2.1223717
9	0x4017cfc1	2.3720553
10	0x403a8a59	2.914694
11	0x404d891b	3.2114933
12	0x4036b645	2.8548748
13	0x4023d5ee	2.5599322
14	0x400b5a07	2.1773698
15	0x3fc55142	1.5415423
16	0x404cb38d	3.198459
17	0x40217921	2.5230181
18	0x40823679	4.0691495
19	0x402e7b69	2.7262824
20	0x4045cf59	3.0907805
21	0x402533b5	2.581281
22	0x406c5d4e	3.6931949
23	0x4003ab57	2.0573328
24	0x40848c64	4.1421375
25	0x400d17fb	2.2045887
26	0x40a9c502	5.305299
27	0x40723f48	3.7851124
28	0x40490b96	3.1413321
29	0x40da790f	6.8272777
30	0x4062bc5d	3.5427468
31	0x403baa26	2.93226
32	0x40801ada	4.003278
33	0x400dc15e	2.2149272
34	0x406bd16f	3.6846578
35	0x4030a594	2.760106
36	0x3fe1ff1d	1.7655979
37	0x4077e45d	3.8733132
38	0x40477f9c	3.1171637
39	0x403cdeec	2.951106
40	0x40a7950a	5.2369432
41	0x3ff443e7	1.9083222
42	0x408a7be9	4.3276258
43	0x404fde49	3.2479422
44	0x400655f3	2.098996
45	0x403c6308	2.9435444
46	0x4012de39	2.2948134
47	0x4093b34e	4.615638
48	0x401ef819	2.4838927
49	0x4041f019	3.0302794
50	0x4089ba3e	4.3039846
51	0x401cb5d6	2.4485984
52	0x4031f229	2.7804053
53	0x402bfe55	2.6873982
54	0x3fc2ce43	1.5219196
55	0x402caa1a	2.6978822
56	0x40073730	2.1127434
57	0x4052ebc1	3.2956393
58	0x4060871d	3.5082467
59	0x403d5cc1	2.9587862
60	0x402ced11	2.7019694
61	0x40c2f851	6.092812
62	0x400ef99d	2.2339852
63	0x4050cdf3	3.2625701
