output/best_model.pth (torch, 459471 bytes, 24 tensors)

encoder.0.0.weight f4 [64, 1, 3, 3]
000000 fb 85 2a 3d 77 8e 36 be 8f 06 fb 3d d6 fa d6 3d
       0.04163168 -0.17827784 0.1225711 0.10497062
000010 68 d2 36 be f2 7e 45 bd ed a2 32 be 86 b0 bf 3d
       -0.17853701 -0.048216768 -0.17444964 0.09359841
000020 c8 c4 9a bd 1e 65 73 3e d9 af 72 3e 6c ff 11 3d
       -0.07557064 0.23769042 0.23699893 0.03564398
000030 fd ab 16 be 3d f4 49 be 48 24 f8 bc 20 61 ca bd
       -0.14714046 -0.19722076 -0.030290738 -0.098818064
000040 c4 6c 18 3e 36 0f 87 be bc 6f a3 3e 2a 38 81 be
       0.14885241 -0.26378793 0.31921184 -0.25238162
000050 28 d8 83 3e 58 42 85 bd b6 26 26 3e 34 61 f8 3d
       0.25750852 -0.06506795 0.16225705 0.12127915
000060 b6 3f 8a 3c e7 2d 73 3d 54 39 81 3e bd 89 95 3d
       0.016876083 0.059369948 0.2523905 0.07301662
000070 7d 44 28 3e b0 fb 77 be b5 e7 69 3e 91 8e ce 3d
       0.16432376 -0.24217105 0.22842295 0.10085786
000080 79 a5 ca 3d 17 d4 38 3d 39 18 31 3e 12 ad a4 3e
       0.09894843 0.04512414 0.17294396 0.32163292
000090 d2 b6 a4 bd 6e 65 39 be 73 c7 ab bd 4c 9f 61 be
       -0.08042683 -0.18105099 -0.08387651 -0.22033423
0000a0 2f d8 23 3e 9f 12 31 be 98 07 32 be 07 49 93 3e
       0.16000436 -0.1729226 -0.1738571 0.28766653
0000b0 8b b7 94 3e d4 d0 d6 3c 30 96 96 bd ed c1 2a bd
       0.29046282 0.026222624 -0.07352865 -0.04168885
0000c0 50 69 15 3e d7 20 a0 be 38 1d 80 be ec f3 86 3e
       0.14590955 -0.31275055 -0.25022292 0.26357973
0000d0 84 a7 b5 3e 4a 49 26 3b 61 de 84 be 5f 9c 35 3c
       0.35479367 0.0025373274 -0.25950912 0.011084645
0000e0 53 a2 22 be 70 43 24 3c 13 5a 2c 3e 46 5a 19 3e
       -0.15882234 0.010025844 0.16831236 0.14975843
0000f0 49 84 fd bc 2a 2d 1b 3d ff c4 b4 3d 72 3e 86 be
       -0.030946868 0.03788487 0.088266365 -0.26219517
000100 fe cc d4 bd 4f 21 71 3c 2b d3 32 be d9 1a 15 be
       -0.10390662 0.014717414 -0.17463367 -0.14561023
000110 28 bf e3 3d cc ce 4b 3e 7b d3 d6 ba e6 ef 06 be
       0.111204445 0.19903105 -0.001638993 -0.13177451
000120 b8 c0 3a 3e 69 97 3c be 9b 23 c5 bd 19 95 9b 3e
       0.18237579 -0.18417133 -0.09625932 0.3038719
000130 0a aa 51 3d b0 c5 91 3c eb 68 de 3d cf 92 a5 bd
       0.051187553 0.01779446 0.10859855 -0.08084642
000140 ff f0 95 3e 7b cd 8a be dd b7 d2 bd 4d e0 86 bd
       0.29285428 -0.27109894 -0.102889754 -0.06585751
000150 0b 94 07 be 1c ed b4 bd fb c8 40 3e 8f d7 4b 3e
       -0.13240068 -0.088342875 0.18826668 0.19906448
000160 2e a0 04 3d a5 87 8c 3e 1d 0f 67 be 4d ce 3e be
       0.03237932 0.2744724 -0.22564359 -0.18633385
000170 98 0c 04 3e 2c ee 6b bc 3e 0b 97 be 98 93 77 be
       0.12895429 -0.014400046 -0.29500765 -0.24177396
000180 65 66 3b be 82 6a 8c 3e 7c 62 1d 3e e8 3a 8a 3e
       -0.18300779 0.2742501 0.153696 0.26998067
000190 1a 01 80 be 4c 8a 96 be 02 23 63 be 37 32 11 3d
       -0.2500084 -0.29402387 -0.22181323 0.03544828
0001a0 c4 cc 37 bd fd 61 5a be 0e 62 80 3e 0a 73 b3 bd
       -0.044873014 -0.21326442 0.2507481 -0.08762176
0001b0 da 9c 43 be 1a f1 22 3e c0 70 8e bd 18 c2 61 3e
       -0.19102803 0.15912285 -0.06955099 0.22046697
0001c0 0d b1 a8 3d 3f 65 72 3c 90 c3 89 3d 55 ac 80 be
       0.08236895 0.014794647 0.06726754 -0.2513148
0001d0 ed d7 2c be b6 cc 22 be 5f d0 43 be 30 31 60 3d
       -0.16879244 -0.15898404 -0.19122456 0.05473441
0001e0 85 a9 6b 3d 6d c0 15 be 2b d1 5b 3e bd 20 40 be
       0.057534713 -0.14624186 0.2146651 -0.18762489
0001f0 50 6e 8b 3d 11 a7 c8 bd 20 92 92 be 55 90 5b be
       0.0680815 -0.097974904 -0.2862711 -0.21441777
000200 88 72 08 3e fb a0 10 3e aa 51 4b be 9a 32 e7 bd
       0.1332494 0.14123909 -0.19855371 -0.11288948
000210 fb fe a0 be 72 87 35 3e 4e bb 93 3e 30 29 ee 3d
       -0.31444535 0.1772745 0.2885384 0.1162895
000220 be f8 5e be 7d 5d 2d 3e 1a 05 83 3e 81 ee a6 bd
       -0.21774575 0.16930194 0.2558983 -0.0815096
000230 bf 3c 8a bd 57 a0 fe 3d 2f bc 31 3d 39 fd d1 bd
       -0.06749868 0.12432926 0.043392356 -0.102533765
000240 db a5 8f be 2d 4b 58 be bf b0 f8 3c 6f 20 8d 3b
       -0.28056225 -0.21122427 0.030357717 0.004306845
000250 a9 fe 99 3e c8 8e 0a 3d 7f 89 72 bd f5 23 a0 be
       0.30077103 0.033827573 -0.059213158 -0.31277433
000260 e8 41 90 be 94 8a fd 3d 5e 66 99 3e ae 56 d2 bc
       -0.28175282 0.12379947 0.29960912 -0.025676098
000270 43 86 a0 be fc 5f f1 3d 91 61 87 3e 43 4a 5c be
       -0.31352434 0.11785886 0.26441625 -0.21512704
000280 13 52 c5 bd 51 81 f7 3c bb 58 33 be 78 e2 93 be
       -0.09634795 0.03021303 -0.17514317 -0.2888372
000290 88 2d f7 3d c1 71 83 be 54 eb b8 bd b3 7a 52 be
       0.12069231 -0.25672725 -0.0902926 -0.20554619
0002a0 a3 6c 89 3e 03 ff 88 3d 7b 9f 0e 3e c1 58 66 be
       0.26840696 0.066892646 0.13928024 -0.22494794
0002b0 31 31 8d 3e f8 a9 81 3c 64 b3 40 be b6 2a 9a bc
       0.27576593 0.015828118 -0.18818432 -0.018819194
0002c0 5b cf 74 be fd 93 e9 bb f1 f4 43 3e e9 d1 18 be
       -0.23907225 -0.0071282373 0.19136406 -0.14923824
0002d0 d8 f1 8e 3e 6d 5e d8 3d 96 b8 82 bd 01 af d0 3d
       0.27918887 0.10564885 -0.06382863 0.10189629
0002e0 20 50 7a bd ee e7 aa bd 3e b4 75 be 52 b8 3d 3e
       -0.06111157 -0.08345018 -0.23994538 0.18527344
0002f0 42 56 47 3e ae ef e5 3d c7 9e 49 3e 69 61 ad 3e
       0.19466498 0.11227356 0.19689475 0.3386338
000300 4a 2f 9a 3e 5f 59 aa be 19 4c 90 3d 29 f1 15 bd
       0.30114204 -0.3327131 0.070457645 -0.03660694
000310 76 62 d9 3d d4 7a 52 bd 3e 63 bc 3d da fa 98 be
       0.10614483 -0.05138667 0.091986164 -0.29878885
000320 b2 78 24 3e 41 f2 a4 3e 38 bf 6c bd 29 b9 8c be
       0.16061667 0.32216075 -0.057799548 -0.27485016
000330 52 3c 8c be 86 54 7a bd 5c f3 3a bc 77 f4 50 3d
       -0.2738977 -0.061115764 -0.01141056 0.05101439
000340 fb 16 16 3d 50 3d 82 3e 59 ca 57 bd 6b 7e b3 3d
       0.03664301 0.25437403 -0.05268321 0.08764347
000350 8b 6e 33 be 0e 86 ad 3e 03 d5 f7 3d 89 ca d6 bc
       -0.17522638 0.33891338 0.12101176 -0.026219623
000360 7e 4c 57 3e 50 1f e6 3d 5a 31 83 3d b1 6b d5 bd
       0.21025273 0.11236441 0.064058974 -0.10420931
000370 66 99 34 3d 92 f6 9b 3c f2 bb 49 be f7 77 20 39
       0.044091605 0.019038472 -0.19700602 0.0001530348
000380 64 12 aa 3d aa bc 4f be b3 c9 3b 3d 95 1e dc bd
       0.08304289 -0.20286813 0.045846652 -0.107480206
000390 bf ac 91 be 5c d5 58 be ad de 88 be 02 5b 8c 3d
       -0.28452107 -0.2117514 -0.26732388 0.06853296
0003a0 83 aa 45 3e 46 c7 99 3e 8e 1f a6 3e a0 1c 0b 3e
       0.19303326 0.30034846 0.3244595 0.13585138
0003b0 46 bb 33 3e 22 18 55 bd c0 bc 89 3e ae af e4 bd
       0.17551908 -0.052024968 0.26901817 -0.11166321
0003c0 17 8b d2 bd c9 bf ef bd 79 e3 6c be 45 8d 85 be
       -0.102804355 -0.11706502 -0.23133649 -0.26084343
0003d0 10 a1 86 bd f2 bc 86 3e 21 44 2c be 53 27 9b be
       -0.06573689 0.2631603 -0.16822864 -0.3030344
0003e0 ef 35 9c bd b0 18 9b 3e 88 c8 bb 3d 18 17 76 bc
       -0.076274745 0.30292273 0.09169108 -0.015020154
0003f0 67 ca 00 be b9 e4 91 3e c9 4d a5 be 22 f1 33 3e
       -0.1257721 0.28494814 -0.32285908 0.17572454

encoder.0.0.bias f4 [64]
000000 d7 db 08 3e 34 08 02 3e a9 be 69 be 2c f2 08 3e
       0.13365112 0.12698442 -0.22826637 0.13373631
000010 5c ed 52 be 75 0e 2b 3e 41 20 22 be 03 48 82 3d
       -0.20598358 0.16704734 -0.15832616 0.063613914
000020 5a ea ef 3a d2 80 63 be bf c1 9c be 0f 6c 8f bd
       0.0018304095 -0.2221711 -0.30616567 -0.070030324
000030 5f 0c 42 3e 86 fb 9d bd 22 77 bf bd f6 55 58 be
       0.18950032 -0.0771399 -0.09348895 -0.21126541
000040 7c c4 76 be 57 dd 95 bc de b1 af bd d2 da e8 3d
       -0.2409839 -0.01829402 -0.08578847 0.11369862
000050 30 c1 a3 3e 98 9a 63 be 5d 7d c6 bd a3 d1 08 3e
       0.31983328 -0.22226942 -0.0969188 0.1336122
000060 e3 25 64 be 6d 66 fc bc c9 89 31 be 10 2e 56 3e
       -0.22280078 -0.03081056 -0.17337717 0.20916009
000070 55 24 14 bd 3c f5 ed 3c 1d 11 45 3e 0e 11 7c be
       -0.03616746 0.0290476 0.1924481 -0.24615881
000080 b8 0d 33 be 1e c3 89 3e bf 27 f8 3d 7b c1 08 bd
       -0.17485702 0.26906675 0.12116956 -0.033387642
000090 28 be a7 3e b0 44 93 3e af 90 16 be e7 31 b3 bd
       0.32762265 0.28763342 -0.1470363 -0.087497525
0000a0 17 3d 1b 3e ef e8 58 be 96 b3 ab be 0f 76 38 be
       0.15160023 -0.21182607 -0.3353545 -0.18013786
0000b0 fb 27 a3 be ca 99 5a 3e 2b f1 8f 3d ae a3 8d be
       -0.3186644 0.21347728 0.07028421 -0.2766394
0000c0 c7 be ba bc ce 04 a7 3e ef a5 3f be 83 1e 56 be
       -0.022796048 0.32620853 -0.18715642 -0.20910077
0000d0 99 ad 0c 3e b2 aa 77 be 41 49 9f be c6 9b 4b 3e
       0.13738097 -0.24186209 -0.31110576 0.19883642
0000e0 f9 81 2a bd f2 91 39 3e c7 91 84 bd 9d ad 9f 3e
       -0.041627858 0.1812208 -0.06473117 0.31187144
0000f0 05 de 13 be 2f 58 8a 3e c0 4c 41 be 97 76 da bd
       -0.14440162 0.27020404 -0.18876934 -0.106671505

encoder.0.1.weight f4 [64]
000000 de ee 84 3f 72 b2 80 3f 4b 9d 7e 3f 15 5a 7e 3f
       1.0385396 1.0054457 0.9945876 0.99356204
000010 07 f8 7d 3f 69 94 81 3f e3 0a 80 3f 6d 2c 80 3f
       0.99206585 1.0123416 1.0003322 1.0013558
000020 20 09 81 3f 3b 21 7f 3f 69 7c 81 3f eb a9 84 3f
       1.008091 0.9966008 1.0116092 1.0364355
000030 59 4f 81 3f 6e 8c 7e 3f c2 f2 7f 3f 74 a6 80 3f
       1.010234 0.9943303 0.99979794 1.0050797
000040 21 73 83 3f 79 ed 7f 3f fa ef 80 3f 12 18 80 3f
       1.026951 0.9997173 1.0073235 1.0007346
000050 cd a2 80 3f d0 f1 80 3f 6b 56 81 3f be d7 7d 3f
       1.0049683 1.0073795 1.0104498 0.9915732
000060 6b 33 80 3f 59 66 7d 3f 82 bc 80 3f b4 d4 80 3f
       1.0015692 0.98984295 1.0057528 1.0064912
000070 6c 2d 81 3f 84 85 7c 3f 3e 41 83 3f 64 7b 80 3f
       1.0091987 0.9864123 1.0254285 1.0037656
000080 ea 6b 7d 3f 96 41 80 3f 7b e5 80 3f 72 6d 7b 3f
       0.9899279 1.0020015 1.0070032 0.98213875
000090 c7 ae 83 3f 19 09 81 3f 75 a5 80 3f f7 35 7f 3f
       1.0287713 1.0080901 1.0050493 0.9969172
0000a0 0a 48 7d 3f 8a 19 7d 3f c0 b1 7b 3f d0 b6 7c 3f
       0.9893805 0.98867095 0.983181 0.9871645
0000b0 b7 f3 7d 3f 8b 62 80 3f ff 5f 7f 3f 50 03 7e 3f
       0.99200004 1.0030073 0.99755853 0.99223804
0000c0 e5 f1 7d 3f 57 f9 80 3f 1f 5e 80 3f a0 d1 80 3f
       0.99197227 1.0076092 1.0028723 1.0063972
0000d0 95 7c 7d 3f 37 2b 80 3f cc c8 80 3f 77 c7 80 3f
       0.9901822 1.0013188 1.0061278 1.0060872
0000e0 98 35 80 3f e6 19 81 3f 1a fd 7b 3f 3b 65 7d 3f
       1.0016356 1.0086029 0.9843308 0.9898259
0000f0 c2 49 80 3f 2f 35 7d 3f 29 bf 83 3f 1d b0 81 3f
       1.0022509 0.98909277 1.0292712 1.013187

encoder.0.1.bias f4 [64]
000000 3f f2 ca 3b fe 24 bd bb 4c 84 d5 bb e0 6e c1 bb
       0.0061934288 -0.005772232 -0.006516015 -0.00590311
000010 7e 8c 27 3b 15 1f 20 3c a9 a9 26 3c 0d 14 0a 3c
       0.0025565918 0.0097730355 0.010172286 0.008427632
000020 c1 87 5f bc 09 c5 21 ba ad 63 9f 39 30 d9 d2 bb
       -0.013643206 -0.0006171023 0.00030401108 -0.006434582
000030 81 b4 2b bc 7a 1a 1f bc cc 39 39 3c a4 b5 51 bb
       -0.010480047 -0.009710902 0.011305284 -0.0031999135
000040 05 85 b3 3b 94 9f 0b bb 6b 97 03 bc fc 99 18 bc
       0.0054785036 -0.0021304833 -0.008031706 -0.0093140565
000050 31 fd e4 3b ab f4 c7 3a 97 02 6a 3b 44 30 5f bc
       0.0069881906 0.0015255412 0.003570711 -0.013622347
000060 ec c0 5a bb 64 69 14 bc 44 e0 7d 3a 98 cb cd bb
       -0.003337915 -0.00905833 0.0009684602 -0.006280374
000070 f1 5a 09 3c 9f e6 a1 bc 43 11 15 bb 98 11 29 bc
       0.0083834985 -0.019763289 -0.0022745884 -0.010319136
000080 e5 f2 92 38 3d db 43 b9 63 6f 12 bc bf 5e d5 3b
       7.007065e-05 -0.00018678322 -0.0089376895 0.0065115388
000090 76 36 cf 3b ae 31 86 3c 7d 93 99 3b d3 34 0f bc
       0.006323631 0.016381111 0.0046867714 -0.008740622
0000a0 8b a5 6c ba 9d 44 3f bc 21 32 ac bb 78 ae ba bb
       -0.00090273534 -0.0116740735 -0.0052549993 -0.005697068
0000b0 00 7f 14 bc e1 70 47 bc 6c ef 0a bc bd 39 3a bc
       -0.009063482 -0.0121729085 -0.008479934 -0.011366305
0000c0 03 02 0d 3c fb ba 5d 3a ac 38 18 bc 4d c5 e5 3b
       0.008606437 0.0008458343 -0.009290855 0.0070120455
0000d0 31 a9 84 bb 6c 6f c4 bb 5e 9a 5b bc 42 40 42 3c
       -0.0040484895 -0.005994728 -0.013403503 0.011856141
0000e0 f3 0d 89 bb 04 93 67 bb 75 ee 3a bc 8c ea c3 3b
       -0.004182571 -0.003533543 -0.011409392 0.005978888
0000f0 c5 dc ad bb e5 a5 7d bc d6 1d 6f 3b ad 4e 1c 3b
       -0.005305859 -0.015481447 0.003648629 0.0023850605

encoder.0.1.running_mean f4 [64]
000000 aa 13 e4 3d 8f 35 f7 3d cd 73 24 be 9c 3c 57 3e
       0.11136563 0.12070762 -0.160598 0.21019214
000010 1a ab 5f be 24 da 33 3e 61 1d 20 be 69 98 db 3c
       -0.21842614 0.17563683 -0.15636207 0.026806073
000020 76 95 44 3d e1 a6 60 be f8 75 b4 be 19 2f e7 bd
       0.0479941 -0.21938659 -0.35246253 -0.1128828
000030 9f b6 36 3e e0 3f dc bd f3 74 fc bd ac e0 43 be
       0.17843102 -0.10754371 -0.12326994 -0.19128674
000040 3b 1f 9b be 25 fd 83 bb ac bd f4 bd 13 4f b1 3d
       -0.30297264 -0.00402798 -0.119502395 0.0865766
000050 0f 27 b4 3e d1 1c 2c be 33 00 03 be ba 6c 3b 3e
       0.3518605 -0.16807868 -0.12793045 0.18303195
000060 d2 2e 52 be 7c 44 8c bd 78 f4 19 be 8d 67 44 3e
       -0.20525673 -0.06849 -0.15034664 0.19180126
000070 3e e3 34 bd 09 d5 cc 3c 9d ea 0d 3e 20 9d 8c be
       -0.044162028 0.025003927 0.13859029 -0.27463627
000080 18 c8 41 be cf 46 9d 3e b7 a7 76 3d d7 87 98 bc
       -0.18923986 0.30718085 0.06021854 -0.018619461
000090 86 71 8f 3e 16 e0 8a 3e f5 b5 06 be 81 9a d4 bd
       0.280163 0.2712409 -0.13155349 -0.10381032
0000a0 52 03 09 3e 64 c6 35 be 73 5b 8f be e5 09 2f be
       0.13380173 -0.17751461 -0.27999458 -0.17093618
0000b0 08 d2 9e be 83 fa 6b 3e ae 0c ea bb f4 81 85 be
       -0.31019616 0.23044781 -0.007142625 -0.2607571
0000c0 e8 10 51 3c a6 72 96 3e 56 4c 22 be a1 68 34 be
       0.012760378 0.29384345 -0.15849432 -0.17618038
0000d0 31 e4 2f 3e 67 9e 84 be 2f e3 a0 be f8 67 2c 3e
       0.17176892 -0.259021 -0.31423327 0.16836536
0000e0 2e 48 75 bc c6 7d 16 3e 1d 83 56 bc aa ac ac 3e
       -0.014970822 0.14696416 -0.013092783 0.33725482
0000f0 69 7c e8 bd d4 7a 94 3e 99 11 6f be 98 7d e7 bd
       -0.11351854 0.2899996 -0.23346557 -0.11303252

encoder.0.1.running_var f4 [64]
000000 aa f3 c7 3b 5e 5f 6d 3c b8 fb e4 3c e4 99 1e 3d
       0.006102045 0.014488069 0.02795206 0.03872098
000010 4f 97 ab 3c a5 d9 ca 3c ba 1e 21 3c 71 62 85 3c
       0.020946173 0.024761984 0.009833986 0.016282292
000020 85 9a b5 3c 0e 2d ad 3c 70 c6 dc 3c b9 4c a4 3c
       0.022168407 0.021139648 0.026950091 0.020056115
000030 d5 4f 1a 3c 57 a8 35 3c 53 4f bb 3c 59 f6 27 3c
       0.0094184475 0.011087499 0.022864973 0.010251605
000040 25 19 e9 3c 1a ad ba 3c ea 07 d1 3c b4 81 71 3c
       0.028454373 0.02278762 0.025516469 0.014740396
000050 f0 be 55 3c 8d 8f cb 3c b2 6d 83 3c 1a 62 96 3c
       0.013046011 0.024848724 0.016043518 0.018357325
000060 3d b3 0f 3c fc 0c fa 3c 42 a7 cc 3c b0 d6 a9 3c
       0.008770761 0.03052377 0.024982098 0.020732254
000070 dc 24 48 3c a0 68 9f 3c 5a f6 ae 3c c0 b2 11 3d
       0.012215819 0.019459069 0.021357704 0.03557086
000080 69 b8 21 3c 32 05 d9 3c 27 58 fd 3c 66 c5 89 3c
       0.009870627 0.026491735 0.030925823 0.01681776
000090 ab 53 c3 3c 70 ad 04 3d 7f 9a 63 3c 09 0e 8e 3c
       0.023843607 0.032391965 0.013891815 0.017340677
0000a0 08 f8 6c 3c 44 3b 92 3c bf 4b af 3c fa 02 4c 3c
       0.014463432 0.017850526 0.021398423 0.012451882
0000b0 bb ba 2e 3c da 6c 82 3c 72 a0 1e 3d be 1c 22 3d
       0.010664637 0.015921045 0.03872723 0.039578192
0000c0 59 d0 92 3c a5 d8 98 3c 4e c9 9a 3c f1 a1 ac 3c
       0.017921614 0.018657992 0.018894818 0.021073313
0000d0 3a 5c b3 3c e1 51 48 3c e3 39 5c 3c 83 65 be 3c
       0.021894563 0.012226553 0.013441536 0.023241764
0000e0 18 dc c0 3c 9b 85 f3 3c 98 9f bc 3c 47 2d 90 3c
       0.023542449 0.029726794 0.023025319 0.017599715
0000f0 80 d0 34 3d 27 46 09 3c f4 0b d2 3c 8b c5 17 3c
       0.044144154 0.008378542 0.025640465 0.0092634065

encoder.1.0.weight f4 [64, 64, 3, 3]
000000 24 58 10 3d 65 c2 dd 3c ae e8 52 bc 3e da fe bb
       0.035240307 0.027070234 -0.012872858 -0.0077774813
000010 95 90 1f 3d 33 2d 85 bc 39 69 1c 3c aa 00 9b 3c
       0.038956244 -0.016256904 0.009546571 0.018921215
000020 e4 85 25 bc b7 7d 78 3c a0 91 99 bc 40 4f 0a bd
       -0.010102723 0.0151666915 -0.018746197 -0.033766985
000030 e7 73 eb bb 50 83 28 bd 81 24 cc bc ef 0f 54 3c
       -0.0071854475 -0.041140854 -0.02491975 0.012943252
000040 11 97 e5 bb 52 cb d4 bc fe fd 08 3d 37 90 41 bd
       -0.007006534 -0.025975857 0.03344535 -0.047256675
000050 85 0d e8 3a 5d 79 0e bd 2d b6 0f bd f1 52 ad ba
       0.0017704224 -0.03478371 -0.035085846 -0.0013223571
000060 19 6a 26 3d 40 6a fe bb 83 fd 1c bd 60 d8 be 3b
       0.040628526 -0.007764131 -0.038327705 0.0058241338
000070 80 88 b7 bc 2b d6 10 bd 02 15 96 3c 20 ef c4 3b
       -0.022403955 -0.035360496 0.018320564 0.0060099512
000080 f7 cf e5 bc db b2 bb ba bc d6 1a 3c a7 8a e0 bb
       -0.028053267 -0.0014320271 0.009450611 -0.006852466
000090 16 03 2f bc f3 93 ef bc b9 b6 7a 3c fb 7b 9d 3c
       -0.010681888 -0.029245352 0.015302354 0.019224158
0000a0 4d 8a 1b 3d 4c 81 1f 3d 3e b1 17 bc 50 3f 64 3c
       0.03797369 0.038941666 -0.009258566 0.0139311105
0000b0 77 43 a6 bc 21 e3 71 bb d4 df a1 3b 60 f5 84 bb
       -0.020295842 -0.003690906 0.0049400125 -0.0040575713
0000c0 7c 06 e6 bc ed 1d eb bc b4 c7 a8 3c 88 73 e2 3c
       -0.028079264 -0.028700793 0.020603038 0.02764298
0000d0 ed 3a 0f 3d 3f 74 cb 3c 3a 74 b4 3c 90 90 48 3c
       0.034968305 0.024835704 0.022028077 0.012241498
0000e0 3b d7 a1 3c ff 5d c0 bc 18 b0 8e 3a 18 2d 89 3c
       0.01975595 -0.02348232 0.001088622 0.016745135
0000f0 13 f7 e9 bb 7a 73 d3 3b 71 85 d2 bc b2 40 32 bd
       -0.0071400492 0.006452975 -0.025698395 -0.04351873
000100 43 37 f7 bc c0 14 87 ba ad a7 e3 3c 09 7d 82 bc
       -0.030177718 -0.0010305867 0.027789915 -0.015928762
000110 6c 4d 9c bc 53 bd 1c bd da f4 5c 3c f9 8c 04 3d
       -0.019079886 -0.03826649 0.013486112 0.032361005
000120 7b a2 2e bc bb 73 a2 bc a6 21 d7 3c 00 3f 00 bd
       -0.010658856 -0.019830575 0.026261162 -0.03131008
000130 22 eb 9a 3c e6 d9 94 b9 36 9e 95 bc f8 50 34 3d
       0.018910948 -0.00028391107 -0.018263917 0.04402253
000140 92 55 c6 bc 83 23 02 3d 77 b5 e2 3c 5b a2 11 3c
       -0.024210725 0.031772148 0.02767442 0.008888806
000150 3e 9b ed 3b 18 cb 2f 3c 52 6b 2c 3d fe 8d 84 3b
       0.0072511723 0.010729574 0.042094536 0.004045247
000160 fb c4 04 bd 64 92 88 bc 91 dd a8 ba 25 e2 fe 3c
       -0.032414418 -0.016671367 -0.0012883415 0.031113693
000170 3f 85 0f bc 8d f8 7e bb b7 a7 9a 3c 33 7d 32 3c
       -0.008759796 -0.0038905472 0.0188788 0.010894108
000180 5b 2c 36 bd 84 08 62 3d 26 66 77 bc c8 49 ad 3b
       -0.044475894 0.055183902 -0.015100038 0.0052883364
000190 6f 87 93 bb 81 4f 80 3c 72 59 4c 3c de 00 c4 3c
       -0.004502229 0.01566291 0.012472497 0.023926195
0001a0 b4 fe 64 bb 58 55 33 3c 17 4b 94 bc f8 d2 34 3d
       -0.0034941854 0.0109456405 -0.018102212 0.044146508
0001b0 eb 29 f1 3c 74 af 23 3d 71 fa d6 3a 49 b0 27 bd
       0.029438933 0.039962247 0.0016401542 -0.040939603
0001c0 86 59 11 bd 9f b0 26 bd 68 bc 5e 3c 2e 29 12 3d
       -0.035485767 -0.040695783 0.013594724 0.035683803
0001d0 77 80 1f 3d 70 88 90 bc cb ba b2 bc 69 66 b0 bc
       0.038940873 -0.017643183 -0.021817585 -0.021533208
0001e0 f9 c8 18 3d 0e ab 0c bd 36 2b 7e bc 82 d3 73 3c
       0.037301037 -0.034342818 -0.015513232 0.01488197
0001f0 9c 6a 4f 3c da d6 ff bb 27 68 d4 bc b7 bc 20 bd
       0.012659695 -0.0078075947 -0.02592857 -0.039242472
000200 cc d2 74 3c 86 92 05 bd 7b 0d cb bb fb 03 ef 3c
       0.014942836 -0.03261044 -0.0061966754 0.029176703
000210 75 8a fd bc b4 df 61 3d 3d 53 20 bc fb 7d 16 3d
       -0.03094981 0.05514498 -0.009785471 0.036741238
000220 76 41 a9 bb 4e fa b6 3c 69 ca 59 bc 86 27 57 bc
       -0.0051652743 0.022336151 -0.013292887 -0.013131982
000230 96 dd e2 bc f2 30 05 3d 5b 0d 2b bd 8e 46 10 3d
       -0.027693551 0.03251738 -0.041760784 0.035223536
000240 da 61 65 bc 4d dc f3 bc 44 83 4a bb 7c 83 2a bc
       -0.01400038 -0.029768134 -0.0030900994 -0.010407325
000250 7b d3 5f bc 39 62 40 39 e9 b6 91 bc 2f 2d 14 ba
       -0.013661261 0.00018347138 -0.017787414 -0.0005652485
000260 6a e0 3c 3d bd 36 1e 3b a1 d3 c3 3c d0 c8 28 bc
       0.046112455 0.0024141513 0.023904623 -0.010301784
000270 ab ce f5 3c 60 af ac 3b 3f 75 18 bd 7b 83 cb 3c
       0.030005774 0.0052699298 -0.03722119 0.024842968
000280 ce 89 c0 3b f4 57 90 3c 7b 0b 4b bd da 62 36 bc
       0.0058758026 0.017620064 -0.049571496 -0.0111319665
000290 df a6 35 bd f4 f5 cd bc 4e b4 63 bc 6b 4a a3 bc
       -0.044348594 -0.025141694 -0.013897968 -0.019932946
0002a0 fd 9f 1f bd 2e 59 21 3d fe f3 a3 3c 71 da c6 3c
       -0.038970936 0.03939169 0.020013805 0.024274083
0002b0 5b 17 f6 3c 7e 0e 87 3b e1 36 b8 3b df 4e e0 bc
       0.030040434 0.0041216007 0.0056217765 -0.027381359
0002c0 59 1b 08 bc 68 a5 de 3c a6 19 8b 3c ed ef 38 3c
       -0.008307301 0.027178481 0.016980004 0.0112876715
0002d0 10 21 d3 3c 71 3a ab 3c 1b d3 44 bc 8e 26 1b 3d
       0.025772601 0.02090189 -0.012013222 0.037878565
0002e0 62 f5 93 bc 34 91 38 bc 47 f4 f8 3c f9 ce aa bc
       -0.018061344 -0.011265088 0.030389918 -0.020850645
0002f0 cb a0 2e 3d 21 33 22 bc 1b fe 9c bc 0b 3e df 3c
       0.042633813 -0.009899885 -0.019164136 0.027251264
000300 c6 26 ed 3c 9d 1a 13 bd 5c 5e 4d 3c ba 7f c9 3a
       0.028949153 -0.035914052 0.012534704 0.0015373148
000310 55 7b 1c bd ec b8 10 bc 71 a2 08 3c b3 bb c5 bc
       -0.038203556 -0.008833151 0.00833951 -0.024137354
000320 29 a2 b6 3b cd 2f 98 3c 6f 7a 2a 3d df a6 d5 3c
       0.00557353 0.01857748 0.041620668 0.026080547
000330 43 c7 51 bc 5b 99 1f 3c 7c 93 c4 3c 51 f2 df 3b
       -0.012803855 0.009741153 0.023996107 0.0068343063
000340 b8 a7 0d bd d0 06 b0 3a 6b 62 fe 3c c8 15 44 bd
       -0.034583777 0.0013429765 0.031052789 -0.047872335
000350 53 c9 64 bc 01 a9 b0 3c 34 8e 1a 3a 21 73 08 3d
       -0.013964015 0.021564962 0.00058958237 0.03331292
000360 71 e6 0a bc 5e 73 df bc 82 83 12 bd 28 58 0e bd
       -0.008477793 -0.027276691 -0.035769947 -0.03475204
000370 dc 1d 81 bc 63 53 98 3c e3 6a a1 ba bd 91 eb ba
       -0.015761308 0.01859445 -0.001231518 -0.001797251
000380 41 a2 d6 3c a2 63 48 3b 5e 2d d0 bc 30 d2 9f bc
       0.026200416 0.0030576964 -0.025412258 -0.019509405
000390 09 37 90 3c ce f1 71 bc a8 2f 9b 3c 9d a2 0e 3c
       0.017604368 -0.014767123 0.018943623 0.008705762
0003a0 78 57 4a 3c 30 05 fd bc 0c 47 91 bc 74 a4 fb bc
       0.012349956 -0.030886263 -0.017734073 -0.030718066
0003b0 07 79 1b 3c 5b 94 3f bd 51 e3 f2 bc 64 a2 06 3d
       0.009489304 -0.046772342 -0.029649409 0.03286971
0003c0 fe 66 13 bc 43 f5 a7 3c 69 d7 9d bc c2 a4 9e bc
       -0.008996723 0.020502692 -0.019267755 -0.019365672
0003d0 67 5a eb bc d3 c7 21 3c 3d 4e 24 bd aa a3 ca bc
       -0.02872963 0.009874302 -0.040113676 -0.024736244
0003e0 17 89 8e 3c 2d aa 36 bc ef e7 c9 bc d5 db e1 3c
       0.017399354 -0.0111489715 -0.024646727 0.027570644
0003f0 60 56 28 bc c9 21 2d bd 83 75 ed 3c 40 5f ed bc
       -0.0102745 -0.04226855 0.028986698 -0.028976083

encoder.1.0.bias f4 [64]
000000 f3 fb 31 3c 41 a6 c8 bb 74 0a 06 3d e1 0a de bb
       0.010863292 -0.0061233346 0.032724813 -0.006776199
000010 49 36 e9 3c cf 25 3b bb 45 92 d2 bc 52 d0 c4 bc
       0.028468268 -0.0028556471 -0.025704512 -0.024025116
000020 c2 b4 af bc f0 2c ac 3c 6a 8f 9b bc 63 97 58 bb
       -0.021448497 0.021017522 -0.018989284 -0.0033049218
000030 15 34 35 bc e4 af 0a bd e8 4d 08 bd d9 59 5b 3c
       -0.011059781 -0.03385915 -0.033277422 0.013388121
000040 db 6d 3b bc 30 e1 df bc de b5 51 3c 31 5c 2b 3d
       -0.011439766 -0.027329057 0.012799708 0.041835967
000050 df 8d 50 3c c3 5f e8 3b 97 8d cd 3b b4 8f 9d 3c
       0.012729137 0.007091494 0.0062729823 0.019233562
000060 c1 0a 0b bd 7e e5 ad 3a 7f 55 8c bc 23 8f b8 3c
       -0.033945803 0.0013267247 -0.017130611 0.02252919
000070 f1 f5 a4 ba 15 24 07 bc b9 15 92 3b 5b 0d 96 3c
       -0.0012585503 -0.008248349 0.004458156 0.018316915
000080 5a 1b 51 bc 0b e7 c8 3a 10 6e 9f bc 42 65 9a bc
       -0.012762869 0.0015327645 -0.019461662 -0.018847112
000090 0a ed 94 3c 7a 2c 82 bc 11 1c be 3c 85 04 1d 3d
       0.018179435 -0.015890349 0.023206742 0.03833439
0000a0 a8 16 cf 3c b5 a1 a9 bc 1a 01 93 3c cf 1d 40 3b
       0.025279358 -0.02070699 0.017944861 0.0029314642
0000b0 6d 96 33 3a a9 7c 12 3d 76 18 ff bc d1 de 29 bd
       0.00068507233 0.035763416 -0.031139594 -0.04147226
0000c0 b2 66 2c 3d 31 00 b5 b9 c6 9a 1e 3d 8b 4f c2 bc
       0.042090125 -0.00034523153 0.038721822 -0.02371957
0000d0 23 ec bf 3c 8b b0 21 3d 28 63 41 3d e7 7b 27 bc
       0.023428028 0.039475005 0.047213703 -0.010222412
0000e0 3e f6 cc bc f9 3d b5 ba 92 8e 9b 3b 63 a1 9f bc
       -0.025019761 -0.0013827673 0.0047472203 -0.019486135
0000f0 1d 69 3f 3c 8a 12 3c bd 48 5e 7e 3c f6 ad a8 bc
       0.011682776 -0.045916118 0.015525408 -0.020590764

encoder.1.1.weight f4 [64]
000000 10 1b 7f 3f 52 81 81 3f 7a f8 7b 3f ac 64 7e 3f
       0.9965067 1.011759 0.9842602 0.99372363
000010 f5 e8 80 3f 0a ff 7d 3f 97 f4 80 3f b9 ac 7d 3f
       1.0071093 0.99217284 1.0074643 0.9909168
000020 28 83 7d 3f 88 ea 7f 3f 9f fa 81 3f a4 15 7c 3f
       0.99028254 0.9996724 1.0154608 0.9847052
000030 55 00 80 3f 98 3e 7d 3f 1c f2 80 3f 6c 25 7e 3f
       1.0000101 0.98923635 1.0073886 0.9927585
000040 bc 57 80 3f c3 10 80 3f b4 c4 7b 3f 80 4b 7d 3f
       1.0026774 1.0005115 0.9834702 0.9894333
000050 3d 58 82 3f 9d 02 80 3f 31 ec 7f 3f df 06 7f 3f
       1.0183178 1.0000798 0.99969774 0.9961986
000060 65 46 80 3f 6c 5c 7f 3f b2 1c 81 3f 51 d0 7c 3f
       1.0021483 0.997504 1.0086882 0.98755366
000070 1b 26 81 3f 22 68 7f 3f 38 41 80 3f e3 69 81 3f
       1.0089754 0.9976827 1.0019903 1.0110439
000080 ad ee 7d 3f 26 47 7f 3f e3 0a 7c 3f 93 cf 80 3f
       0.99192315 0.9971794 0.9845411 1.0063347
000090 30 23 7e 3f 0e ae 80 3f 29 87 80 3f 51 3d 7e 3f
       0.9927244 1.0053117 1.0041248 0.9931231
0000a0 08 b0 7f 3f 40 11 80 3f fc 28 80 3f 62 cd 7d 3f
       0.9987798 1.0005264 1.0012507 0.99141514
0000b0 d2 84 7e 3f 36 cc 7d 3f 89 0a 80 3f e0 6f 7c 3f
       0.9942142 0.99139726 1.0003215 0.9860821
0000c0 87 5f 7e 3f 24 6c 80 3f 70 79 81 3f c6 14 7e 3f
       0.99364513 1.0033002 1.0115185 0.9925045
0000d0 b7 00 81 3f 4b cc 80 3f cc 75 80 3f e7 8f 81 3f
       1.0078343 1.0062345 1.0035949 1.012204
0000e0 29 d1 7f 3f 44 98 81 3f 63 69 80 3f 08 d8 80 3f
       0.9992853 1.0124593 1.0032161 1.0065928
0000f0 93 f5 7d 3f 6c 4f 82 3f bf 52 7f 3f 14 32 80 3f
       0.9920284 1.0180488 0.99735636 1.0015283

encoder.1.1.bias f4 [64]
000000 f0 2e 49 3c 30 9e 22 3b b4 41 0f 3c 2f f6 92 bc
       0.012279257 0.0024813525 0.008743692 -0.017939655
000010 a5 3c c2 3c f0 bd 08 bc a5 09 44 3c e9 28 8d bb
       0.023710558 -0.008346066 0.01196519 -0.0043078554
000020 c9 a4 0c bc 49 3d 88 3b 72 72 8d bb 3c 0b 37 bb
       -0.00858421 0.0041576964 -0.0043166215 -0.002793028
000030 99 5d f3 3a 06 ea 20 ba cf 00 5e 3c dd ab 1f 3b
       0.0018567323 -0.0006138388 0.0135499975 0.0024363913
000040 f3 3a 01 3c 19 e9 3c bc e0 00 01 3c 43 93 e2 bb
       0.00788759 -0.011530184 0.007873744 -0.0069145276
000050 99 9e dd bb 84 ff 40 3b b1 3d c1 3c 62 df cc bb
       -0.006763291 0.0029449174 0.023588987 -0.0062522152
000060 a1 9f b6 3b b7 2a 48 3b ba 3d 41 3c 64 ec 28 bc
       0.0055732285 0.0030543038 0.011794502 -0.010310266
000070 12 12 2e 3c 4c ca 24 bc ec ac 8e 3b aa 37 65 3b
       0.0106244255 -0.010057997 0.00435411 0.0034975805
000080 f0 64 8e 3c b0 33 09 bb 1c 9f be 3b ce 25 ea 3b
       0.017382115 -0.002093535 0.005817307 0.00714562
000090 07 c8 a5 3b a4 d1 52 3b 8c 31 e1 3b fe 4a 49 3c
       0.0050592455 0.0032168413 0.0068723615 0.012285946
0000a0 95 70 1b bb 37 57 b3 39 d0 94 45 bc 5a b8 25 3c
       -0.0023718227 0.0003420652 -0.012059405 0.010114754
0000b0 02 58 10 3b a2 91 bf 3b 2c dc 0c 3c 37 3d 3d bc
       0.0022025113 0.005846218 0.008597415 -0.011550239
0000c0 bf b9 33 bb 2d 6e 79 3b bf 23 3c 3c 0e 7d c3 3a
       -0.0027423946 0.0038060055 0.011483132 0.0014914589
0000d0 bc 05 40 bb d3 78 19 bc 19 84 e3 3a 4c 41 17 bc
       -0.0029300293 -0.009367186 0.0017358094 -0.009231877
0000e0 56 fd 19 ba 8b 98 4b ba 13 0b 33 3b 3c 29 83 3c
       -0.0005874237 -0.0007766566 0.0027319833 0.016010873
0000f0 73 c9 90 ba 99 c2 17 3b 4b 7f 9f bb 25 7a 8e 3b
       -0.0011046365 0.002315676 -0.0048674694 0.004348057

encoder.1.1.running_mean f4 [64]
000000 00 a2 84 3e 3d d3 02 3f 87 fc 5f 3f d8 59 3f be
       0.25904846 0.51103574 0.874947 -0.18686616
000010 9f 79 d9 3e 8e 75 be 3e 18 0b 05 3f 91 f7 3c bf
       0.42475602 0.37199062 0.5197005 -0.73815256
000020 06 a7 d7 3e 6c 3b 48 3e 09 f5 9a 3d d3 ba d9 be
       0.42119616 0.19553918 0.07566268 -0.42525348
000030 82 56 92 3e db e1 94 3c 69 de 74 3e d6 fa 8b bf
       0.28581625 0.018174103 0.23912968 -1.0935924
000040 58 61 b1 3f 94 55 ca 3e f1 14 f3 3e 91 c0 3a bf
       1.3857832 0.39518416 0.47476915 -0.72950083
000050 1d ff 21 bc 6d 67 1a 3f f2 93 82 3f 31 d8 18 3e
       -0.009887484 0.60314065 1.0201399 0.1492622
000060 34 47 9c 3d dd 96 69 3e 3d d3 b5 3f 6e 14 89 be
       0.076307684 0.22811456 1.420509 -0.267734
000070 82 cd 3c 3e b1 93 87 be c8 7c 91 bd fa fc 9a 3f
       0.1843777 -0.26479867 -0.07103878 1.2108452
000080 b7 49 3d be 09 99 21 be b0 6b 89 bc 45 40 42 3f
       -0.18485151 -0.15781035 -0.016774982 0.7587932
000090 ef e9 99 3e 63 65 06 bd b4 d1 7e 3f a9 3d a8 bb
       0.3006129 -0.032811534 0.9953873 -0.0051343036
0000a0 b7 95 9d 3e 5b 92 5f 3f 19 c5 ed be 7a 7b 8b 3e
       0.30778286 0.87332696 -0.46439436 0.27242643
0000b0 08 e6 89 be 19 bd a1 bf 02 1d 1f 3f c8 1f ad bf
       -0.26933312 -1.2635833 0.6215364 -1.3525324
0000c0 5b 54 c9 3f 5a ba 65 bd 44 96 e0 be 91 60 84 bf
       1.5728868 -0.05608592 -0.43864644 -1.034197
0000d0 56 fc e7 be e8 04 20 bf de ea d0 bf ca 80 8c be
       -0.45309705 -0.62507486 -1.6321676 -0.27442008
0000e0 b7 d1 33 3f 92 e2 dc bc 8e 8c 4f 3f 74 39 a7 3e
       0.70241874 -0.026963506 0.81073844 0.3266102
0000f0 b3 1b 11 be eb a4 e9 3e ae 9a 8a 3f ac 78 44 bf
       -0.14170723 0.45633635 1.0828454 -0.7674663

encoder.1.1.running_var f4 [64]
000000 4b d0 d9 3e fe 47 c5 3f 3e 19 87 3f 48 41 3c 3f
       0.42541727 1.5412595 1.0554578 0.7353711
000010 bd 57 1c 3f c4 c2 10 3f 58 bf 80 3f cc b8 f2 3f
       0.6107138 0.5654719 1.0058393 1.8962646
000020 d5 a2 b3 3f 96 b7 97 3e 70 b5 1c 3f 32 9c c8 3f
       1.4034067 0.29632252 0.6121435 1.5672667
000030 6a 7b f8 3f 29 a8 ec 3e a7 60 5d 3f c6 58 0c 40
       1.9412663 0.46222046 0.86475605 2.1929183
000040 02 58 13 40 78 bc 8f 3f af b1 59 3f 56 a0 e7 3f
       2.3022466 1.1229391 0.8503675 1.8095806
000050 e8 53 f1 3e e6 d7 cc 3f 9e fc 1a 40 0e ac 6c 3f
       0.47134328 1.6003387 2.4216685 0.92450035
000060 33 7a 8b 3f b8 09 25 3f 20 4e 5c 40 60 d4 b2 3f
       1.0896667 0.64467955 3.4422684 1.3971062
000070 17 db 19 3f 9a 14 e1 3e 86 74 31 3f 17 2b ec 3f
       0.6009993 0.4396103 0.69318426 1.845065
000080 0e 10 35 3f 59 c6 9a 3f e3 59 0b 3f 1d c6 db 3f
       0.7072762 1.2091781 0.5443403 1.7169834
000090 34 52 90 3f c2 e3 de 3e 4f 29 01 40 95 ca 56 3f
       1.1275086 0.4353314 2.0181463 0.83902866
0000a0 91 68 3d 3f 51 69 06 40 23 6e ba 3f 3d 83 1f 3f
       0.7398768 2.100178 1.4564861 0.6230963
0000b0 da cf 5d 3f 00 68 47 40 bf ca 90 3f b2 95 79 40
       0.8664528 3.1157227 1.1311873 3.8997617
0000c0 c8 57 22 40 0b 0a 82 3f fe da 52 3f 71 85 2d 40
       2.5366077 1.0159315 0.82365406 2.7112696
0000d0 ea f4 bc 3f 96 88 e7 3f 81 35 8b 40 98 f7 11 3f
       1.4762242 1.8088558 4.3502812 0.57018423
0000e0 ba 37 cf 3f 6f e9 d4 3e 9f 0f bc 3f 4f eb bd 3e
       1.6188881 0.41584346 1.4692267 0.3709359
0000f0 c3 63 7f 3f e8 62 37 3f 8b 45 30 40 02 16 05 40
       0.997616 0.71635294 2.7542446 2.0794683

encoder.2.0.weight f4 [64, 64, 3, 3]
000000 c9 01 9d bb ad 47 d5 3b 15 cd 1e 3d 3a c5 55 bc
       -0.0047914726 0.0065087886 0.0387698 -0.013047511
000010 4b 1d 12 3a 01 27 0b bd 96 61 d4 bc a0 03 04 3d
       0.0005573823 -0.033972744 -0.025925439 0.03223002
000020 09 9d b1 3c d8 44 9c bc 65 00 85 3c 81 d5 3a 3d
       0.021681326 -0.019075796 0.01623554 0.04561377
000030 d2 c0 7f bb 37 2d b4 3c b7 86 45 bb 2d 6a 6b 3c
       -0.0039024842 0.021994216 -0.003014011 0.014368576
000040 ee 44 99 ba 9f 9d 83 bc 07 ee bb bb 39 88 d3 3c
       -0.0011693516 -0.01606637 -0.005735162 0.025821792
000050 ad 95 27 3d f0 ff fb 3c 6a 06 ce 3b b2 32 4d 3c
       0.040914226 0.030761689 0.0062873857 0.012524294
000060 8c a8 26 3b c6 99 1b bb de 06 6a bc 4e e1 55 3c
       0.0025430052 -0.002374278 -0.014283864 0.013054205
000070 ce a4 b4 bc 0a 15 1f 3c 9f 61 00 bb 4f a3 db bc
       -0.022051241 0.009709606 -0.0019589437 -0.02681127
000080 32 ed fb bc d5 3c 76 3c da cd 16 3c ba 34 1e bb
       -0.030752752 0.015029152 0.009204352 -0.0024140314
000090 33 bf 97 3b 24 1b 29 3d bb 20 b7 3c a0 bf d4 3c
       0.004630947 0.04128565 0.022354474 0.02597028
0000a0 e2 41 03 3d aa 6b da bc 12 96 3c 3d d3 f0 d6 3c
       0.032045253 -0.026662666 0.046041556 0.02623788
0000b0 de 20 11 bd ff df 5a 3c f5 a7 0c 3d e3 e9 fd 3c
       -0.035431735 0.013359069 0.034339864 0.030995315
0000c0 d4 a7 ab bc fa bb a0 bc 6e 6d d7 3c bd 72 56 3b
       -0.02095405 -0.019620884 0.026297297 0.0032722198
0000d0 ef d8 02 3c 78 4d 0b bb c2 77 18 3c e4 56 f8 3b
       0.007986291 -0.0021255892 0.009305896 0.0075787175
0000e0 cf 5e ca bc 04 c8 b5 3c d3 9a 11 3d 2a 98 48 3c
       -0.024703411 0.022190101 0.035548043 0.01224331
0000f0 cf 91 bc 3a c3 48 f7 3c a0 c3 b8 bc d3 f1 9f 3c
       0.0014386716 0.030186063 -0.022554219 0.01952449
000100 83 c6 f4 bc 56 3a 06 bd a6 19 22 bb 7f f2 21 3c
       -0.029879814 -0.032770477 -0.0024734526 0.009884476
000110 15 4d c3 ba b1 68 24 bc 45 b1 16 bd 85 55 52 bb
       -0.0014900292 -0.010034726 -0.03679015 -0.003209443
000120 55 2e e9 3c c9 64 8e bc e5 41 17 3c f1 07 d7 3c
       0.028464476 -0.017382042 0.009232019 0.026248904
000130 97 a2 bd bb 3a ed 20 3d 3e b5 e6 3c a3 a8 28 3d
       -0.0057872045 0.039288737 0.028162595 0.04117645
000140 d1 a9 ee 3c 12 b8 c8 bc 90 7e 17 3c a9 5c b2 bc
       0.02913371 -0.024501834 0.009246483 -0.0217727
000150 8f 57 ac bc b9 f2 34 3c a5 9b e3 bc 87 9d 7a bc
       -0.021037845 0.011044198 -0.027784178 -0.0152963465
000160 af d0 87 3b 6a 49 c8 3c aa f5 d3 3c 9f 1b 73 3c
       0.00414475 0.024449069 0.025873978 0.014838128
000170 7b 87 aa 3c 9c e6 ff 3c 08 2f 15 b9 50 02 19 3d
       0.020816555 0.031237893 -0.00014227268 0.03735572
000180 cd 49 a6 3c fa 8f 68 bc d5 0d bf 3c 12 41 26 ba
       0.020298863 -0.014194483 0.023322025 -0.00063420937
000190 a3 d2 30 3c 24 7c 4e bc e8 42 19 3c fc a9 0c bc
       0.010792407 -0.01260284 0.009354331 -0.008585449
0001a0 86 c4 bd bb 38 34 e0 bc a2 fb 78 3c b4 30 20 bd
       -0.0057912497 -0.02736865 0.015196713 -0.039108947
0001b0 95 2f 19 3d 64 c6 c3 3b 42 e8 c0 bb c3 23 ed bc
       0.037398893 0.0059745777 -0.0058870623 -0.028947717
0001c0 f0 28 34 bc 90 21 2c 3d c1 3d be 3b 56 86 34 3d
       -0.010996088 0.042024195 0.0058057015 0.044073425
0001d0 d4 e4 50 bc 41 40 7d 3c 56 5a ce 3c d5 af 37 3c
       -0.012749869 0.015457214 0.02518956 0.011211355
0001e0 65 ef d2 3c 6c 3f 75 bc b5 c6 d2 3c 4f dd 18 bb
       0.025748918 -0.014968734 0.025729517 -0.002332527
0001f0 4e b3 0e 3d 20 bc 26 3d 40 ac 0b bb ea 97 1a 3d
       0.034838967 0.040706754 -0.0021312386 0.037742533
000200 c4 35 83 3c be dd 16 3d c5 50 cc 3c cb 07 19 3d
       0.016016848 0.036832564 0.024940858 0.037360948
000210 42 80 85 3c f1 4c 55 3d 2f e2 84 3c c1 34 0e bd
       0.01629651 0.05207533 0.016221134 -0.03471828
000220 14 e7 13 bd 9c 32 fc bc 11 e0 8c 3c 7c 88 ca bc
       -0.036109045 -0.030785851 0.017196687 -0.024723284
000230 96 11 da b9 4a a7 f8 3a 77 d2 2b 3d d5 80 80 3c
       -0.00041593303 0.0018970754 0.04194876 0.015686432
000240 11 c4 df bb 89 2c 05 3b 6a 86 05 bd b5 54 5e ba
       -0.006828793 0.0020320734 -0.03259889 -0.000848125
000250 95 74 0c 3d 86 75 18 bd 6a 08 45 3d 37 bb 81 bc
       0.03429087 -0.037221454 0.048103727 -0.015836341
000260 2e 4a 51 3c 66 f5 1c 3c 70 1a 05 bc 2c ee d5 bb
       0.0127740335 0.009579992 -0.008123979 -0.0065286364
000270 02 68 3c 3c 03 b1 00 3b 0b a4 51 bc e7 a4 0e 3c
       0.011499407 0.0019636757 -0.012795459 0.008706308
000280 52 6a 89 3c 5d ed fd 3b 8a 7e 1d 3c 51 83 a4 3b
       0.01677433 0.007749243 0.009612689 0.005020537
000290 ca c8 3a 3d 3e d7 c7 3c 20 dd aa bc 31 44 03 3c
       0.045601644 0.024394628 -0.020857394 0.008011864
0002a0 4e 4b e5 bc 03 32 95 bc a6 7c 03 bd e1 53 11 bd
       -0.02799001 -0.018212324 -0.032101296 -0.035480384
0002b0 be 4c 0e bd 1e 33 e3 bc b6 2c c1 bc e3 0a d7 3c
       -0.034741156 -0.027734336 -0.02358089 0.026250308
0002c0 5f 57 ad bc 78 26 e0 bb 3b fb dc bc 0b f2 76 bb
       -0.021159826 -0.0068405233 -0.026975265 -0.003768089
0002d0 8d bb 31 bb c7 eb 07 bc 0c 86 db bc a4 04 58 bd
       -0.0027119846 -0.00829596 -0.026797317 -0.0527388
0002e0 99 f5 43 bc 97 b9 b9 bb 78 08 ed 3b 06 cc 95 3c
       -0.0119604105 -0.005667876 0.0072336756 0.018285763
0002f0 18 7a 05 3d f3 03 c8 bc 7a 3b 39 3d 74 34 1c bc
       0.03258714 -0.024415946 0.045222737 -0.00953399
000300 fe b4 cf 3c e1 59 ee 3c bd fb 1b bd 46 7a e0 b9
       0.025354858 0.029095592 -0.038081873 -0.0004281571
000310 43 01 09 3d 9d f5 ba 3c a5 98 ff 3c 0c 5b f8 bb
       0.03344847 0.022822196 0.031200716 -0.007579213
000320 28 fa 23 bd 81 1e 1a 3d ac 26 60 bc b8 13 d7 3a
       -0.04003349 0.037626747 -0.013681095 0.0016409075
000330 01 86 e7 3c 32 4a 18 3c c5 b7 47 3b 59 85 2c bb
       0.02826214 0.009295033 0.0030474525 -0.0026324599
000340 e6 68 4a 3c 72 7d 9c 3c 4b 1d 39 bd c3 c7 8e bb
       0.012354111 0.019102786 -0.04519395 -0.0043573095
000350 93 3a f8 bc 92 72 6f bc a5 8f 83 3c bf bd 1e bc
       -0.030301368 -0.014614718 0.016059706 -0.009688794
000360 35 88 ce 3b fa a1 2a 3d 31 2b 95 3c f1 7d 0d bd
       0.0063028582 0.04165838 0.018209072 -0.034543935
000370 c9 97 28 bc 94 2b 10 bd 91 1c 3d 3d 3b 58 63 bc
       -0.010290095 -0.03519781 0.04616982 -0.013876016
000380 f8 bd 23 3d fb 68 b1 bc 28 cd 30 3d df 02 95 bc
       0.03997609 -0.021656504 0.043164402 -0.018189846
000390 01 a7 c0 3c 6a bc 1b 3d 8b 1b 58 3b c6 ec 0e bd
       0.023517134 0.038021483 0.0032975401 -0.034893773
0003a0 81 2d 72 3c 35 2a 1d 3d 80 31 c4 3c 09 43 d9 3c
       0.014781357 0.03837033 0.023949385 0.026521223
0003b0 e8 a6 fa 3c 51 1e 86 bc bf 92 24 3d 0e 2d 6e 3c
       0.030597165 -0.016371878 0.04017901 0.014537109
0003c0 b9 e4 21 bc bf 0e c8 3c 79 f1 cd bc 7e 30 e3 bc
       -0.009881192 0.024421094 -0.025139557 -0.027733084
0003d0 27 c9 e6 bc a6 d7 57 3b c3 38 01 3d c7 89 33 bd
       -0.028172089 0.0032934933 0.031548273 -0.043832567
0003e0 16 7f 10 bd 1a a8 d3 3c 27 9c 0f bd 5a c7 07 bd
       -0.03527745 0.025836993 -0.035061028 -0.0331491
0003f0 bc 17 7d bc b3 7f b2 bc aa b8 d8 3c b2 7c 06 3d
       -0.015447553 -0.021789407 0.026455242 0.032833762

encoder.2.0.bias f4 [64]
000000 c6 ab a6 bc 78 d9 19 3b 28 a7 70 bc 70 dd 00 bd
       -0.02034558 0.0023475569 -0.014688291 -0.03146118
000010 4b 16 ee bb c5 70 bb bb 25 20 04 3d 03 a6 40 bd
       -0.007265841 -0.0057202303 0.032257218 -0.04703332
000020 35 03 83 bb 77 b0 27 3d ed a9 61 3c 43 5c a7 bc
       -0.003998185 0.040939774 0.013773424 -0.020429736
000030 c1 f1 dd bc 34 2a 80 bc 9c d2 bc 3b 6e 76 ec 39
       -0.027092816 -0.015645124 0.0057624113 0.00045101665
000040 d1 18 6b 3c 5c 5f 14 3d 9a b3 0d 3d e8 5b 26 bd
       0.014349178 0.036223754 0.03459511 -0.040614992
000050 2a 1e a1 bc ed 6a a6 bc 15 1a 89 bc e0 fa 7c bb
       -0.019667704 -0.020314658 -0.01673607 -0.0038601682
000060 29 a2 80 bc cc 04 f0 3b 39 e7 a2 bc 61 89 04 3c
       -0.015702324 0.0073247906 -0.019885646 0.008089394
000070 9a b0 4b bc 1a 06 ec bc 60 29 53 bb 61 08 05 3a
       -0.012432242 -0.028811503 -0.0032220706 0.0005074796
000080 7d 1e 25 3d 6d 26 0c bc 3c 24 1d bd 18 19 7d 3b
       0.04031228 -0.008554083 -0.038364634 0.0038619693
000090 c0 0c c0 3c ef d7 b1 3c b8 56 4f bc 22 df 8a bc
       0.02344358 0.02170941 -0.012654953 -0.016952101
0000a0 7b c2 07 bb 91 02 fb bc 76 b8 8d 3c f9 ab 2d bd
       -0.0020715285 -0.030640872 0.017299872 -0.042400334
0000b0 f2 74 de bc 51 0b a8 bb 12 99 fe 3c aa 43 b4 3c
       -0.027155373 -0.005128302 0.031078849 0.022004921
0000c0 25 5c ff bc 11 d8 f9 3c 29 24 43 3c fe 03 f6 bc
       -0.031171868 0.030498536 0.011910477 -0.0300312
0000d0 33 33 b8 3c b0 c6 0d bd 0a d9 6e bc de fb cb bc
       0.022485351 -0.03461331 -0.014578113 -0.024900373
0000e0 5c 43 d3 3b 12 e4 24 bd 0b a0 18 bd df 8b 08 3d
       0.006447239 -0.040256567 -0.037262004 0.033336516
0000f0 a8 76 41 3c 7f 56 e7 bc c2 30 b5 bb e9 73 f5 bc
       0.011808075 -0.028239487 -0.005529494 -0.029962497

encoder.2.1.weight f4 [64]
000000 0e 1e 80 3f 64 67 83 3f 58 88 80 3f 0e 89 80 3f
       1.0009172 1.0265927 1.0041609 1.0041826
000010 0c 6a 81 3f 81 3f 82 3f 83 3b 80 3f 87 81 7c 3f
       1.0110488 1.017563 1.0018162 0.98635143
000020 d0 4a 7b 3f b1 c1 7c 3f 1d be 80 3f c3 26 7e 3f
       0.9816103 0.9873305 1.0058018 0.99277896
000030 4f 30 7c 3f 0d 8d 7f 3f 86 94 7e 3f 46 b1 80 3f
       0.98511213 0.998246 0.9944538 1.00541
000040 37 bd 7d 3f 50 8a 7c 3f d6 77 81 3f 49 8a 7c 3f
       0.99116844 0.9864855 1.0114696 0.98648506
000050 13 05 80 3f 7d 6c 7c 3f a1 a7 7f 3f 5c 95 80 3f
       1.0001549 0.9860304 0.99865156 1.0045581
000060 72 08 81 3f ad ac 80 3f 3e da 82 3f e4 53 82 3f
       1.0080702 1.0052696 1.0222852 1.0181851
000070 dd e8 80 3f 1e 0a 82 3f a0 c0 80 3f b0 15 7d 3f
       1.0071064 1.0159338 1.0058784 0.9886122
000080 e8 c5 80 3f df 53 7f 3f 0a b7 7d 3f 22 1e 80 3f
       1.0060396 0.9973735 0.9910742 1.0009196
000090 80 32 80 3f c7 57 7c 3f 4c a9 80 3f 09 fc 82 3f
       1.0015411 0.9857144 1.0051665 1.0233165
0000a0 8c 36 81 3f a5 82 7c 3f 39 c1 7d 3f 79 f7 7f 3f
       1.0094771 0.9863685 0.9912296 0.9998699
0000b0 b0 50 82 3f d3 af 80 3f ac 9c 80 3f 27 b2 7f 3f
       1.0180874 1.0053657 1.0047812 0.99881214
0000c0 73 71 7f 3f 6d b7 7f 3f d0 34 7b 3f 71 39 80 3f
       0.99782485 0.9988926 0.9812746 1.001753
0000d0 d4 06 7d 3f 87 b1 7e 3f 54 32 7f 3f 7f fd 81 3f
       0.98838544 0.99489635 0.9968617 1.0155486
0000e0 b3 f5 7e 3f a1 65 7f 3f f7 a1 7e 3f a7 7d 7d 3f
       0.9959366 0.9976445 0.9946589 0.99019855
0000f0 fd 51 7e 3f b7 57 84 3f b5 e5 7b 3f f8 a7 7f 3f
       0.99343854 1.0339268 0.9839738 0.99865675

encoder.2.1.bias f4 [64]
000000 61 b3 55 bc a9 68 09 3c 41 cd 3a bb 92 57 19 3c
       -0.013043256 0.008386769 -0.0028503689 0.009359257
000010 34 48 42 bc 11 dc 83 3c 79 0c 3f bc 16 2a 51 bb
       -0.011858035 0.016096147 -0.011660689 -0.0031915954
000020 fc b5 94 bc 36 2b db bb 95 4a 27 3c 10 41 9f 3c
       -0.018153183 -0.0066885008 0.010210653 0.019440204
000030 3c f2 52 ba ea 88 7b 3c 5d 34 46 3c dd 5b b8 3c
       -0.000804696 0.015352467 0.012097445 0.022504741
000040 e2 5c 4d 3c 23 51 9d bc d8 d6 9c 3c c3 58 c3 3b
       0.012534352 -0.019203728 0.019145414 0.005961509
000050 b4 29 5e bc db 38 07 bc b9 cf 0b 3b 30 c1 21 3c
       -0.0135597475 -0.0082533015 0.002133353 0.00987272
000060 2f cf 42 3c a7 c1 c1 3c d8 bf 67 3c 04 94 de 3b
       0.011890217 0.023651911 0.01414486 0.006792547
000070 38 db 8e 3b 93 64 d0 3a 4a b9 b2 3c 04 4f 14 bc
       0.004359629 0.0015899114 0.021816868 -0.009052042
000080 6a 30 09 3c a9 7b a0 ba 66 1a bb bb b2 aa 8e bc
       0.008373359 -0.0012243885 -0.005709934 -0.017415378
000090 9d 34 6d 3c 30 db 04 bc fa 19 5a bb 3b 20 1c bc
       0.014477876 -0.008108899 -0.0033279643 -0.009529169
0000a0 10 68 6a 3c cb 44 b2 bb 2e f8 3a bc 5c 4c ed 3b
       0.014307037 -0.0054403297 -0.01141171 0.0072417688
0000b0 81 43 76 3c 96 ff b2 3b ec e2 8f bc 58 0c 07 3b
       0.015030743 0.005462597 -0.01756426 0.0020606723
0000c0 94 3b 2f bc 47 fd 28 3c 1c bf 9a 39 64 be 05 bc
       -0.010695357 0.010314292 0.00029515557 -0.008163068
0000d0 73 ed 89 3a a7 e8 85 ba b3 b1 07 3c 95 7e d1 3c
       0.0010523036 -0.001021643 0.008282113 0.025573054
0000e0 0b d7 42 bc d2 cb 8f 3b 78 8a c9 ba 20 5e 86 bc
       -0.011892091 0.004388311 -0.001537635 -0.016402304
0000f0 c1 fe cc 3b e4 94 d0 3b 4b 89 39 ba 4c 9b a0 ba
       0.006255955 0.0063654054 -0.0007077648 -0.0012253313

encoder.2.1.running_mean f4 [64]
000000 51 d8 6d 3f fc a5 55 3d 04 5a 9e bf de 99 bd 3e
       0.929082 0.05216025 -1.237122 0.37031454
000010 6c a8 eb 3e 73 c8 0e bf b9 db dd 3e 4b 26 d6 3e
       0.46026933 -0.5577461 0.43331698 0.4182609
000020 2d ea 17 3f b4 b3 d6 be b6 74 c3 3c ad 1c bf 3f
       0.593417 -0.41933978 0.023859363 1.4930626
000030 9d 2e 93 be ad 04 a5 3e 98 75 95 3e fe 01 4b 3f
       -0.287465 0.3223013 0.2919128 0.79299915
000040 34 67 ec 3e c3 c8 df be 9c c1 95 bf f0 10 b3 3f
       0.46172488 -0.43707857 -1.169971 1.3989544
000050 01 d8 89 bf e9 d5 31 3f 3f 59 86 bf 9b 09 21 3f
       -1.0769044 0.69467026 -1.0495986 0.6290528
000060 35 e0 ec 3e 81 db 1a 3f 6a 42 77 bf 12 df 84 3e
       0.46264806 0.60491186 -0.96585715 0.2595144
000070 97 9a df be 20 7f 0b c0 32 80 b9 be e3 76 f5 3d
       -0.4367263 -2.179634 -0.36230618 0.119855665
000080 79 bb a7 3e f7 16 01 3d e3 3b a1 bf db e9 7b bd
       0.32760218 0.03151604 -1.2596401 -0.06150232
000090 71 71 1e 3e 5b a9 82 3e 75 53 89 3f 4a 7c 86 be
       0.15472962 0.25519833 1.0728594 -0.262667
0000a0 8e 1d aa bf 0d b2 2a 3f eb 98 81 bf db db a6 3e
       -1.3290269 0.66677934 -1.0124792 0.3258961
0000b0 e2 20 96 bd a8 1a 43 3f df 7b 5e 3f 9e 82 8d be
       -0.07330491 0.7621255 0.8690776 -0.27638716
0000c0 b4 48 e6 be be 22 76 3f ed b8 d5 3f c4 b3 28 3f
       -0.44977343 0.9614676 1.669706 0.658993
0000d0 cd 1d a1 bf 61 46 97 3e aa dd 0f be b4 b2 28 bf
       -1.258722 0.29545882 -0.14049402 -0.6589768
0000e0 00 c8 81 be c6 33 2c be c2 e3 a0 3f 6c b9 fb 3f
       -0.253479 -0.16816625 1.2569506 1.9665961
0000f0 70 e9 58 3e 27 eb 0f c0 3d 4a 4f 3f 2b 0c 2d 3f
       0.211828 -2.2487276 0.80972654 0.6759669

encoder.2.1.running_var f4 [64]
000000 3a 9c 10 40 12 a7 f3 3e 25 77 18 40 e8 69 dc 3f
       2.2595353 0.47588402 2.382272 1.721982
000010 a9 42 61 3f 5f c6 be 3f 1f a3 8a 3f c0 09 1d 3f
       0.8799234 1.4904288 1.0831031 0.61343
000020 e8 b2 8c 3f 2c 00 b2 3f 25 84 34 3f 88 dd 00 40
       1.0992098 1.3906302 0.70514137 2.0135212
000030 0a 57 8a 3f 55 15 5e 3f ef e6 0e 3f 0f 56 47 3f
       1.0807812 0.867513 0.55821127 0.7786569
000040 c3 c8 7b 3f ac 46 87 3f f2 82 ad 3f dc fe 0d 40
       0.98353213 1.0568442 1.3555586 2.2186804
000050 76 b0 a0 3f 38 f2 99 3f 9e e7 b8 3f 3c c3 97 3e
       1.2553852 1.2027044 1.4445684 0.2964114
000060 8a 02 92 3f 5e c5 49 3f 7e 3c 6c 3f 05 58 a5 3f
       1.1407025 0.78816783 0.92279804 1.2917486
000070 f2 b9 b5 3f 30 29 3d 40 52 3c 17 3f fa 84 54 3f
       1.4197371 2.955639 0.59076416 0.83015406
000080 cb 9e 72 3f fd 3c 5a 3f 59 8a b2 3f a5 fa 17 3f
       0.9477355 0.8524931 1.394847 0.5936683
000090 e6 a3 0f 3f f4 3c 99 3f d0 1d 96 3f a5 b6 48 3f
       0.56109464 1.1971726 1.1727848 0.78403693
0000a0 f0 6d 0a 40 f6 0a 79 3f a5 ed 13 40 61 62 c0 3f
       2.16296 0.9728235 2.3113797 1.5030023
0000b0 b5 e9 0c 3f 89 2a 5f 3f 75 12 86 3f 35 f6 a6 3f
       0.5504411 0.8717428 1.0474383 1.3043886
0000c0 2e 8c 4d 3f 8d 91 4f 3f c3 7a 14 40 88 d9 b4 3f
       0.8029202 0.8108147 2.3199928 1.4128885
0000d0 fc 55 5e 3f ed 86 82 3f 0f 1f a1 3e 2e 61 42 3f
       0.8684995 1.0197426 0.31469008 0.75929534
0000e0 2e b1 06 3f 59 0f 9e 3f 95 21 a4 3f 99 f3 15 40
       0.52614105 1.2348434 1.2822748 2.342993
0000f0 c9 f5 8e 3f 17 5c 41 40 eb 5b c0 3f 13 b1 8a 3f
       1.1168758 3.0212457 1.5028051 1.0835289
