output/last_model.pth (torch, 459471 bytes, 24 tensors)

encoder.0.0.weight f4 [64, 1, 3, 3]
0	0x3d0bcf12	0.034133025
1	0xbe65c7dc	-0.22439522
2	0x3e2c3b7f	0.16819571
3	0x3d99be79	0.07507033
4	0xbe5cea95	-0.21573861
5	0xbda4d091	-0.080475934
6	0xbdedd93b	-0.11613699
7	0xbd5390e4	-0.05165185
8	0xbd38eaa9	-0.045145664
9	0x3e030e78	0.12798488
10	0x3e63ba75	0.22239096
11	0xbc869035	-0.016426185
12	0xbe16a097	-0.14709698
13	0xbe8646fc	-0.26226032
14	0xbdbb0b58	-0.09133023
15	0xbe14fd74	-0.1454981
16	0x3ded7dd0	0.115962625
17	0xbe994150	-0.29932642
18	0x3ead881c	0.33892906
19	0xbe97409b	-0.29541478
20	0x3e6cb996	0.2311767
21	0xbd69fafb	-0.05712412
22	0x3e527724	0.20553261
23	0x3dc896eb	0.0979441
24	0x3c750e6f	0.0149570545
25	0x3dae7381	0.08518124
26	0x3e4c63fe	0.19960019
27	0x3da60d78	0.08108038
28	0x3e66ea30	0.22550273
29	0xbde9ce13	-0.11416259
30	0x3e826815	0.25470033
31	0x3d84c6c9	0.06483228
32	0x3e066c19	0.13127173
33	0x3da17911	0.0788442
34	0x3e0b0c6e	0.1357896
35	0x3ea521e7	0.32252428
36	0xbe1c12ff	-0.15241621
37	0xbe548ca7	-0.2075678
38	0xbd9c56ac	-0.07633719
39	0xbe95dd32	-0.2927032
40	0x3e28c71c	0.16482204
41	0xbe275056	-0.1633924
42	0xbe61d341	-0.22053243
43	0x3e81c133	0.25342712
44	0x3e2381db	0.15967505
45	0x3c41d5fd	0.011830804
46	0xbdecab2b	-0.11556085
47	0xbd77ea9b	-0.06052647
48	0x3dd53acf	0.104116075
49	0xbe9fbecd	-0.31200257
50	0xbe997cf8	-0.29978156
51	0x3d8625df	0.06550192
52	0x3ed44c5f	0.41464517
53	0xbd6037cf	-0.054740723
54	0xbea7c7f1	-0.3276973
55	0x3b7411d3	0.003724207
56	0xbe0a1890	-0.13485932
57	0xbd0b540e	-0.034015708
58	0x3e22a6a6	0.15883884
59	0x3dc9f3a3	0.09860923
60	0xbcd8417d	-0.026398415
61	0x3cca27a2	0.024677102
62	0x3d129fbe	0.035796873
63	0xbdaecd0d	-0.08535204
64	0xbc7ed9be	-0.0155548435
65	0x3d1ec94e	0.038766198
66	0xbdf4985f	-0.11943125
67	0xbe479a8f	-0.19492553
68	0x3dff7d79	0.12475104
69	0x3e35bcce	0.17747805
70	0xbe12f140	-0.14349842
71	0xbe480b3d	-0.19535537
72	0x3e58c2f9	0.21168126
73	0xbe2036c0	-0.15645885
74	0xbd88c792	-0.0667869
75	0x3e4e7094	0.20160133
76	0x3db13b8f	0.08653938
77	0xbc13d089	-0.009021887
78	0x3dde270b	0.108472906
79	0xbd98b44f	-0.07456266
80	0x3eb7f248	0.35927033
81	0xbe949449	-0.29019383
82	0xbe39bb6c	-0.18137902
83	0xbd997956	-0.07493846
84	0xbe3a6ffd	-0.18206783
85	0xbe1a6184	-0.15076262
86	0x3e575b28	0.21030867
87	0x3e3d6243	0.18494515
88	0x3d86eceb	0.06588157
89	0x3de35e28	0.11101943
90	0xbdb012b0	-0.08597314
91	0x3b0735e6	0.0020631491
92	0x3e01dd75	0.12682135
93	0xbe153b3e	-0.1457338
94	0xbebe4489	-0.37161663
95	0xbebaedf6	-0.36509675
96	0xbdd012fd	-0.10159872
97	0x3e9036ee	0.28166908
98	0x3d0fc1be	0.035096876
99	0x3e91c882	0.28473288
100	0xbe605f38	-0.21911323
101	0xbe4a4f10	-0.19756722
102	0xbe972ca5	-0.2952625
103	0xbe13e7b3	-0.14443855
104	0x3c80c5a1	0.015719237
105	0xbe822011	-0.2541509
106	0x3e69c105	0.22827537
107	0x3b18152e	0.0023205983
108	0xbe3a4e37	-0.18193899
109	0x3e3517db	0.17684881
110	0xbaab5454	-0.0013071396
111	0x3e47d05c	0.19513077
112	0x3db09e31	0.086239226
113	0xbd08c7cb	-0.033393662
114	0xbcf4894b	-0.029850623
115	0xbe8e2f68	-0.27770543
116	0xbe564157	-0.20923363
117	0xbd7c405d	-0.06158482
118	0xbe3281c1	-0.1743231
119	0xbcdd3c78	-0.027006373
120	0x3de28f8e	0.11062537
121	0xbe710b03	-0.23539357
122	0x3e7030ff	0.2345619
123	0xbddb00cb	-0.106935106
124	0xbd83c06f	-0.06433188
125	0xbdbb8c4c	-0.09157619
126	0xbea0baab	-0.31392416
127	0xbe7a7554	-0.2445882
128	0x3db73eb4	0.089475065
129	0x3d3b4a64	0.04572524
130	0xbe8e5e7c	-0.2780646
131	0xbe57ef6a	-0.21087423
132	0xbea83551	-0.32853177
133	0x3de09639	0.10966153
134	0x3e69a7de	0.22817943
135	0x3db19dfb	0.086727105
136	0xbe9e67be	-0.30938524
137	0x3e176eb3	0.14788322
138	0x3e57db14	0.21079665
139	0xbdab0757	-0.08351009
140	0xbde76a47	-0.11299568
141	0x3d50e87e	0.05100297
142	0x3d5779b2	0.052606292
143	0xbdf987be	-0.12184094
144	0xbdfa7a42	-0.1223035
145	0xbe1d67b9	-0.15371598
146	0x3d3f4bef	0.046703275
147	0xbd13d6ff	-0.036093708
148	0x3ecd1f65	0.40063015
149	0xbcec2827	-0.02882774
150	0xbd8098f4	-0.062791735
151	0xbe9f9a05	-0.31172195
152	0xbe34fae5	-0.17673834
153	0xbd55c505	-0.052189846
154	0x3e26fc01	0.1630707
155	0xbd6f404f	-0.05841094
156	0xbecab2dc	-0.39589584
157	0x3e443207	0.19159709
158	0x3e54bda2	0.20775464
159	0xbe9defeb	-0.30847105
160	0xbe0d6dc3	-0.13811402
161	0x3ba6b7b4	0.005087817
162	0xbde07487	-0.10959726
163	0xbe8b5f9b	-0.2722138
164	0x3e25d05c	0.16192764
165	0xbe204d47	-0.15654479
166	0xbded1c8b	-0.1157771
167	0xbe938d16	-0.28818578
168	0x3e94cd71	0.2906299
169	0xb99001da	-0.000274672
170	0x3daecd4b	0.0853525
171	0xbe704067	-0.23462068
172	0x3e95eeb9	0.29283693
173	0xbcc9066a	-0.024539191
174	0xbe534fac	-0.20635861
175	0xbbd4135f	-0.006472036
176	0xbe0a50aa	-0.13507333
177	0xb9966602	-0.0002868623
178	0x3e72cef6	0.23711762
179	0xbe270335	-0.16309817
180	0x3e5ff3bd	0.21870323
181	0x3dbc163a	0.09183927
182	0xbddbcd33	-0.10732498
183	0x3d77a3de	0.06045901
184	0xbd5a4bbe	-0.05329489
185	0xbe2501db	-0.16113989
186	0xbe8e257d	-0.27762976
187	0x3e438a9a	0.19095841
188	0x3e436314	0.19080764
189	0x3d0606eb	0.03272144
190	0x3e015e62	0.1263366
191	0x3e9b1fa6	0.30297583
192	0x3ea51a34	0.32246554
193	0xbeb4a78d	-0.3528408
194	0x3cf1de9a	0.02952509
195	0x3c845e20	0.016158164
196	0x3e410500	0.18849564
197	0x3d5f82a0	0.054567933
198	0x3d852c4a	0.06502588
199	0xbe6bc346	-0.2302371
200	0x3db1ba3e	0.08678101
201	0x3ea64de5	0.32481304
202	0xbdf47f17	-0.11938303
203	0xbea9ba76	-0.3315007
204	0xbe9a3d94	-0.30125105
205	0xbe07b014	-0.13250762
206	0x3b8eef59	0.0043620286
207	0x3c462a6a	0.012095073
208	0x3baf1cbd	0.005344002
209	0x3e8ec84d	0.27887192
210	0xbdf72deb	-0.12069305
211	0x3e395f53	0.1810277
212	0xbe365418	-0.17805517
213	0x3e857527	0.26065943
214	0x3d9fa0ef	0.077943675
215	0xbab25f09	-0.0013608645
216	0x3e23d7d9	0.16000308
217	0x3d9c919d	0.07644961
218	0x3d5442b2	0.051821418
219	0xbe1d6aa5	-0.15372713
220	0x3c2c2eaa	0.010509172
221	0x3c1f6e5f	0.009730904
222	0xbe954655	-0.29155222
223	0xbd03523b	-0.032060843
224	0x3c81ec14	0.015859641
225	0xbd34f95d	-0.044183124
226	0x3dd10d12	0.10207571
227	0xbe133516	-0.1437572
228	0xbe87463d	-0.26420775
229	0xbebd7dfc	-0.3701018
230	0xbe95dcb5	-0.2926995
231	0x3c5c702a	0.013454476
232	0x3e118c1b	0.14213602
233	0x3e78472b	0.24245898
234	0x3e2eacad	0.17058058
235	0x3caa6b2b	0.020803055
236	0x3e1d7c99	0.15379561
237	0xbd4c87c3	-0.04993416
238	0x3e975d8e	0.29563564
239	0xbda34f6a	-0.079741314
240	0xbe20eadc	-0.15714592
241	0xbe83c503	-0.25736246
242	0xbea349b6	-0.31892174
243	0xbe356b50	-0.17716718
244	0xbd0f0da3	-0.034925114
245	0x3e81c764	0.25347435
246	0xbe03da4d	-0.12876244
247	0xbec584f4	-0.38577998
248	0xbe2baa0d	-0.16764088
249	0x3e95f9c5	0.29292122
250	0x3c5c712d	0.013454718
251	0xbd543215	-0.051805574
252	0xbe7762b5	-0.24158747
253	0x3e912290	0.28346682
254	0xbebe0c22	-0.37118632
255	0x3da73094	0.081635624

encoder.0.0.bias f4 [64]
0	0x3e4ff33f	0.20307635
1	0x3e0f6c2c	0.14006108
2	0xbe8f3ffa	-0.27978498
3	0x3e1876f7	0.14889131
4	0xbe592697	-0.21206127
5	0x3e38cf8e	0.18047926
6	0xbe1a6502	-0.15077594
7	0x3acb4c07	0.0015510329
8	0xbb24f807	-0.002517225
9	0xbe548b32	-0.20756224
10	0xbe888785	-0.26665893
11	0xbd962981	-0.07332135
12	0x3e71bd1d	0.23607297
13	0xbdacec1e	-0.08443473
14	0xbde76851	-0.11299194
15	0xbe2fd00a	-0.17169204
16	0xbe81496e	-0.25251335
17	0xbc85399d	-0.016262824
18	0xbd4508c5	-0.048104066
19	0x3e018e7f	0.12652014
20	0x3ea8b711	0.3295217
21	0xbe3ad6c6	-0.18245992
22	0xbe16b99f	-0.14719246
23	0x3e49e090	0.1971457
24	0xbe4aa477	-0.19789301
25	0xbcf9972a	-0.030467588
26	0xbe3c4a2a	-0.18387666
27	0x3e36be26	0.17845973
28	0xbca49897	-0.020092292
29	0x3d6aee72	0.057356305
30	0x3e65ef86	0.22454652
31	0xbe8eee17	-0.27916023
32	0xbe41ccf4	-0.1892584
33	0x3e9ada6f	0.30244777
34	0x3dd31c30	0.10308111
35	0x3cbe1e7f	0.023207901
36	0x3eb4b38d	0.35293236
37	0x3e7ba3b0	0.2457416
38	0xbe161c8a	-0.14659324
39	0xbdb93ade	-0.09044431
40	0x3e1d2e16	0.15349612
41	0xbe3669af	-0.17813753
42	0xbea99010	-0.33117723
43	0xbe2914af	-0.16511796
44	0xbea5a268	-0.3235047
45	0x3e7fb930	0.24972987
46	0x3d27aa98	0.040934175
47	0xbe95a971	-0.29230836
48	0xbd275a6d	-0.04085772
49	0x3eaf74ca	0.3426879
50	0xbe305124	-0.17218453
51	0xbe41053f	-0.18849657
52	0x3dc64b93	0.096823834
53	0xbe87e579	-0.2654226
54	0xbeba3ec5	-0.36376014
55	0x3e88d70b	0.26726565
56	0xbd12ad7b	-0.035809975
57	0x3e4c5876	0.1995562
58	0xbdb7fdf8	-0.089839876
59	0x3eab22d9	0.33425024
60	0xbe15db74	-0.14634496
61	0x3e88b381	0.2669945
62	0xbe5d51e4	-0.2161327
63	0xbe0659fe	-0.13120267

encoder.0.1.weight f4 [64]
0	0x3fa0314c	1.2515044
1	0x3f76477c	0.96202826
2	0x3f62bedf	0.88572496
3	0x3f4d8bea	0.80291617
4	0x3f756747	0.95860714
5	0x3f78baf0	0.97160244
6	0x3f6fe3fe	0.93707263
7	0x3f97aa78	1.1848898
8	0x3f5eaa87	0.86978954
9	0x3f7b57d4	0.9818089
10	0x3f976f6b	1.1830877
11	0x3f99b9f4	1.2009873
12	0x3f83b970	1.0290966
13	0x3f9755d3	1.1823066
14	0x3f7ec21d	0.99514943
15	0x3f6d5c09	0.9271856
16	0x3f98908b	1.1919111
17	0x3f8360fc	1.0263972
18	0x3f80ca13	1.0061668
19	0x3f880515	1.0626551
20	0x3f52fdef	0.8241872
21	0x3f6970aa	0.91187537
22	0x3f9942d2	1.1973517
23	0x3f651333	0.8948242
24	0x3f6887d4	0.9083226
25	0x3f83daa0	1.0301094
26	0x3f73af6a	0.95189536
27	0x3f8d49fa	1.1038201
28	0x3f865875	1.0495745
29	0x3f76ddfa	0.9643246
30	0x3fada4b4	1.3565888
31	0x3f82293f	1.0168837
32	0x3f90f926	1.1326034
33	0x3f61130c	0.8791969
34	0x3f909f04	1.1298528
35	0x3f7ac334	0.97954106
36	0x3fa0c7c4	1.2560964
37	0x3f89f81c	1.0778842
38	0x3f7308c2	0.9493524
39	0x3f85b46d	1.0445687
40	0x3f7d880b	0.9903571
41	0x3f61d539	0.88215977
42	0x3f4e1b7a	0.80510676
43	0x3f787a89	0.97061974
44	0x3f74e18b	0.9565665
45	0x3f692e4d	0.91086274
46	0x3fbcfcdf	1.476467
47	0x3f84aaf6	1.0364673
48	0x3f552353	0.83257025
49	0x3f86d9b3	1.0535187
50	0x3f5ea197	0.86965317
51	0x3f549d75	0.8305276
52	0x3f5643ca	0.8369719
53	0x3f7a909c	0.97876906
54	0x3f79bd07	0.9755406
55	0x3f7fdc4d	0.9994553
56	0x3f63a579	0.88924366
57	0x3f8c130f	1.0943316
58	0x3f40376d	0.75084573
59	0x3f59cf70	0.8508215
60	0x3f7e1086	0.9924396
61	0x3f7789e1	0.9669476
62	0x3fa3382a	1.2751515
63	0x3f8c8de8	1.0980806

encoder.0.1.bias f4 [64]
0	0xbe41f60b	-0.18941514
1	0x3d131204	0.035905853
2	0xbe8ca4bd	-0.27469435
3	0xbe6a8b73	-0.22904758
4	0x3d3e8d11	0.04652125
5	0xbe138417	-0.14405857
6	0x3d1749fb	0.036935788
7	0xbda80dd0	-0.082057595
8	0xbe98b165	-0.2982284
9	0x3d7354a2	0.059406884
10	0xbe7890f8	-0.24274051
11	0xbdcb2ca8	-0.09920627
12	0xbd996cdb	-0.07491466
13	0xbe5aaa33	-0.21353988
14	0x3cc8b635	0.024500946
15	0xbe306ff0	-0.17230201
16	0x3ccb081e	0.024784144
17	0xbdd096bc	-0.10185
18	0xbd787e22	-0.060667165
19	0xbdff1b8e	-0.124564275
20	0xbe3247e1	-0.17410232
21	0xbe8e5b1f	-0.27803895
22	0xbdeaef3e	-0.11471413
23	0xbe85b3cf	-0.26113746
24	0xbe6eedc4	-0.23332888
25	0xbcd4e742	-0.025989179
26	0xbde64234	-0.11243096
27	0xbe0a4cbb	-0.13505833
28	0x3dc16a09	0.09444053
29	0x3e059b88	0.13047612
30	0xbe7a12e3	-0.24421267
31	0xbdcffef9	-0.10156054
32	0xbe56b492	-0.2096732
33	0xbe342b2f	-0.17594598
34	0xbe5e4a03	-0.2170792
35	0x3ce12959	0.027485536
36	0xbe2669d8	-0.16251314
37	0xbd3ece0d	-0.046583224
38	0xbe7ea5b6	-0.24867901
39	0xbe274ba3	-0.16337447
40	0x3d4381f7	0.047731366
41	0xbe84a5d0	-0.25907755
42	0xbe9be9d6	-0.3045184
43	0x3bc8ae44	0.0061242897
44	0x3a8b6b38	0.0010636812
45	0xbe8276b1	-0.2548118
46	0xbe772a84	-0.24137312
47	0xbd42c7a5	-0.047553677
48	0xbe012a32	-0.12613752
49	0x3ddf646f	0.10907828
50	0xbe298c3f	-0.16557406
51	0xbdfbad5a	-0.122889236
52	0xbe48b856	-0.19601569
53	0xbc8a2629	-0.0168639
54	0x3d6b7473	0.0574841
55	0xbc4c221a	-0.012459302
56	0xbe590ca0	-0.21196222
57	0xbe405a70	-0.18784499
58	0xbe7f6262	-0.24939874
59	0xbe43d9f1	-0.19126107
60	0xbda037ee	-0.07823168
61	0xbe4ccc29	-0.19999756
62	0xbe42a0c6	-0.19006643
63	0xbd5bb1f6	-0.053636514

encoder.0.1.running_mean f4 [64]
0	0x3e2bbaea	0.16770521
1	0x3dd0152c	0.10160288
2	0xbe5d7c78	-0.21629512
3	0x3e762592	0.2403777
4	0xbe81db7b	-0.25362763
5	0x3e25356c	0.1613366
6	0xbe2a3a52	-0.1662381
7	0xbcfb9e1f	-0.030715046
8	0x3d475277	0.04866263
9	0xbe6cd14a	-0.23126712
10	0xbea16ae4	-0.31526864
11	0xbdf23925	-0.11827306
12	0x3e5befab	0.21478145
13	0xbdeecfc7	-0.11660724
14	0xbe3b749d	-0.18306203
15	0xbe35f8a4	-0.1777063
16	0xbe92f417	-0.2870185
17	0xbd3c04c9	-0.045903
18	0xbda30465	-0.079598226
19	0x3ddc9ab4	0.10771695
20	0x3eaed7eb	0.34149107
21	0xbe01a288	-0.12659657
22	0xbe491802	-0.19638065
23	0x3e72d04d	0.23712273
24	0xbe56bde1	-0.2097087
25	0xbd9fe6c8	-0.0780769
26	0xbe4de268	-0.20105898
27	0x3e1829d0	0.148597
28	0xbd595b48	-0.05306557
29	0x3cb2e780	0.021838903
30	0x3e32d11e	0.17462584
31	0xbea6630a	-0.32497436
32	0xbe6954de	-0.2278628
33	0x3e99db42	0.30050093
34	0x3cbbf90d	0.022945905
35	0xbbc7f482	-0.0061021456
36	0x3e93b6e5	0.28850475
37	0x3e5ef3fa	0.21772757
38	0xbe293289	-0.16523184
39	0xbdeafb96	-0.114737675
40	0x3dfb7500	0.12278175
41	0xbe252dd9	-0.1613077
42	0xbe923fa5	-0.28564182
43	0xbe3c6d08	-0.18400967
44	0xbeaf398c	-0.34223592
45	0x3e706165	0.23474653
46	0xbc811ce5	-0.015760848
47	0xbea57945	-0.32319084
48	0xbce43851	-0.027858885
49	0x3e9f8160	0.31153393
50	0xbe19dcdf	-0.15025662
51	0xbe305767	-0.17220841
52	0x3e011e50	0.1260922
53	0xbe9e1024	-0.3087169
54	0xbec7662c	-0.38945138
55	0x3e5bbba7	0.21458302
56	0xbd27a4c2	-0.04092861
57	0x3e24f087	0.16107379
58	0xbd1ff40c	-0.0390511
59	0x3ead2cba	0.33823186
60	0xbe266222	-0.16248372
61	0x3e868890	0.26276064
62	0xbe88c46e	-0.26712364
63	0xbe241946	-0.16025266

encoder.0.1.running_var f4 [64]
0	0x3c4a5bb5	0.012350966
1	0x3ca91c30	0.020643324
2	0x3ccc8575	0.024965981
3	0x3d406f3e	0.04698109
4	0x3cd4db8d	0.025983596
5	0x3cbc331d	0.022973591
6	0x3c2b278b	0.0104464395
7	0x3c332a5f	0.010935395
8	0x3caff7c8	0.021480456
9	0x3cbfa4f3	0.023394084
10	0x3cefa05b	0.029251268
11	0x3cb0b4cc	0.021570586
12	0x3c52558d	0.01283778
13	0x3c36ae08	0.011149891
14	0x3d2c4685	0.04205944
15	0x3c1134c6	0.00886268
16	0x3c763fa1	0.015029819
17	0x3ce2d9fa	0.02769183
18	0x3caee7f2	0.021350835
19	0x3c580532	0.013184832
20	0x3c1b2d88	0.009471305
21	0x3cab741a	0.020929385
22	0x3ccac11d	0.024750287
23	0x3c544b7b	0.012957449
24	0x3c2a7bc7	0.010405487
25	0x3d06493b	0.03278468
26	0x3cbdcfaf	0.02317032
27	0x3cc07494	0.023493089
28	0x3c409aaa	0.011755625
29	0x3ccd9369	0.025094705
30	0x3cc4d1a7	0.024025751
31	0x3d33fbe9	0.043941412
32	0x3c886a41	0.016652228
33	0x3cc5b2ce	0.024133112
34	0x3d45cb2e	0.04828947
35	0x3cb4a456	0.022051018
36	0x3d108fe7	0.035293486
37	0x3d0da23b	0.034578543
38	0x3c3983d4	0.011322934
39	0x3c8c7f97	0.017150683
40	0x3c96746b	0.01836606
41	0x3c2c5201	0.010517598
42	0x3c813585	0.01577259
43	0x3c6ed544	0.014577214
44	0x3c56c962	0.013109537
45	0x3c8108c5	0.015751252
46	0x3cfe4ea4	0.031043358
47	0x3d2b80da	0.04187093
48	0x3c6d160c	0.014470588
49	0x3c893249	0.01674761
50	0x3c879ba3	0.016553706
51	0x3c807b59	0.015683817
52	0x3ca052fe	0.019570824
53	0x3cb8b6a7	0.022548033
54	0x3c922234	0.017838575
55	0x3cf1af75	0.02950261
56	0x3cc54fd3	0.024085915
57	0x3ce30956	0.027714413
58	0x3cb1c653	0.021701014
59	0x3c83cff9	0.01609038
60	0x3d2a9a1d	0.04165088
61	0x3bca3428	0.0061707683
62	0x3cee43fc	0.029085152
63	0x3c7e5da4	0.015525255

encoder.1.0.weight f4 [64, 64, 3, 3]
0	0xbcf1f271	-0.02953455
1	0x3cb01324	0.021493502
2	0xbb68bab9	-0.0035511686
3	0x3cc6db8b	0.024274608
4	0x3d1a0d22	0.03761018
5	0x3d65abc5	0.056072015
6	0x3cb601ac	0.022217594
7	0x3d56f603	0.05248071
8	0x3bde65e4	0.0067870487
9	0x3c974222	0.018464152
10	0xbb3c6806	-0.0028748526
11	0xbc594151	-0.013260202
12	0x3bce493f	0.0062953527
13	0xbc734e28	-0.014850177
14	0x3c3ea611	0.011636273
15	0xbd3bfd37	-0.04589578
16	0x3c508751	0.012727574
17	0xbccd68f5	-0.025074461
18	0x3cbbeffc	0.022941582
19	0xbd5f5385	-0.05452301
20	0xbac00629	-0.0014650273
21	0xbd3032b5	-0.043017108
22	0xbd4bd19e	-0.049760453
23	0xbd16fc44	-0.036861673
24	0x3d45fcb5	0.048336703
25	0xbc3fd470	-0.011708364
26	0xbd37a79d	-0.044837583
27	0xbba96758	-0.0051697902
28	0xbd39fa25	-0.045404572
29	0xbd128850	-0.03577453
30	0x3c27838f	0.010224237
31	0xbc068b00	-0.008211851
32	0xbd264eff	-0.04060268
33	0xbc06569e	-0.008199362
34	0x3c53b2e9	0.0129210735
35	0xbc5d7846	-0.013517445
36	0xbcafae1f	-0.021445332
37	0xbc30b985	-0.010786419
38	0x3c99b6ab	0.01876386
39	0x3bb1e7da	0.00542925
40	0x3d911588	0.07084185
41	0x3d119483	0.035542022
42	0xbccec609	-0.025240915
43	0xbc515d46	-0.012778586
44	0xbd87b619	-0.06626529
45	0x39f974c9	0.00047579993
46	0xbc13f4c5	-0.009030526
47	0x3ab6a364	0.0013934192
48	0xbd3eae77	-0.0465531
49	0xbc9b6cad	-0.01897272
50	0x3c7c1dc3	0.015387955
51	0x3bee2569	0.007267643
52	0x3cec46a8	0.028842285
53	0xbcfe4f92	-0.031043801
54	0x3d256ede	0.040388934
55	0x3aeb4396	0.0017949219
56	0x3c5585cf	0.013032391
57	0xbc9307ec	-0.017948113
58	0x3d31fb76	0.043452702
59	0x3c1bff1b	0.009521271
60	0xbcfdc4cc	-0.03097763
61	0x3ce55676	0.02799533
62	0xbce145f3	-0.027499175
63	0xbd04aed0	-0.032393277
64	0xbd6cc90f	-0.057808932
65	0x3d3ace92	0.045607157
66	0x3cb83260	0.022484958
67	0x3b40e371	0.002943244
68	0x3d1c9891	0.038231436
69	0xbd3e82a8	-0.046511322
70	0x3d46c14e	0.048524193
71	0x3d8c5557	0.06852215
72	0xbc0316e8	-0.008001067
73	0xbc9170ac	-0.017753921
74	0x3d26c136	0.040711604
75	0xbcdac9aa	-0.026707489
76	0x3cbd5176	0.023110133
77	0x3b3dce20	0.0028961971
78	0xbc4074c0	-0.011746585
79	0x3d5b3820	0.05352032
80	0xbbb740ea	-0.005592455
81	0x3d2590ec	0.04042141
82	0x3d251ddf	0.04031169
83	0x3bfe01ba	0.0077516707
84	0xb9b77394	-0.00034990592
85	0x3d63201b	0.05545054
86	0x3cfe07f1	0.031009646
87	0xbc5ff847	-0.013670034
88	0xbd24f24d	-0.04027014
89	0xbc1d713e	-0.009609519
90	0x3c9d56b2	0.019206379
91	0x3e1b7bd1	0.15183951
92	0x3d58ab66	0.052897833
93	0x3b145ef8	0.0022639614
94	0x3d9b6ac3	0.075887226
95	0xbced3b9b	-0.028959086
96	0xbd2297f7	-0.039695706
97	0x3dcce07e	0.10003756
98	0xbd056a90	-0.03257233
99	0xbd4c3588	-0.04985574
100	0x3d1bdbd3	0.038051438
101	0x3e06533c	0.13117689
102	0x3ddfa0d2	0.10919346
103	0x3dd81451	0.1055075
104	0x3d17157b	0.03688572
105	0xbcfc4e61	-0.030799093
106	0x3d503e58	0.050840706
107	0x3dfcaa0f	0.123371236
108	0x3c8758db	0.016521862
109	0x3dd3d3ab	0.10343107
110	0x3d182400	0.037143707
111	0xbd479d5b	-0.04873405
112	0x3d1c5c96	0.038174234
113	0xbd1dc8ad	-0.038521457
114	0xbc17e63f	-0.009271204
115	0x39f506c7	0.0004673509
116	0x3d007fc5	0.03137185
117	0xbb8206bc	-0.003968088
118	0x3cd8cdbc	0.02646529
119	0x3c3b0850	0.011415556
120	0x3d9863ec	0.074409336
121	0x3d37fa59	0.044916485
122	0xbbe4dd2f	-0.006984375
123	0x3b9d7ec6	0.0048063723
124	0x3dc038d2	0.093858376
125	0x3db75db5	0.0895342
126	0xbd32af1b	-0.043624025
127	0x3c6dc865	0.01451311
128	0xbbca9e1c	-0.006183399
129	0xbd5b8031	-0.05358905
130	0x3c3220a0	0.010872036
131	0xbc2afa26	-0.010435617
132	0xbcff6a09	-0.031178491
133	0x3d9c5f78	0.07635397
134	0xbcc7d73e	-0.024394628
135	0x3c883638	0.016627416
136	0xbd2aff59	-0.041747425
137	0x3b6e0c5a	0.003632328
138	0x3c01d393	0.007923978
139	0xbcc15db0	-0.023604244
140	0x3c1e4016	0.009658834
141	0x3d4ac5de	0.049505107
142	0xbd798d75	-0.06092592
143	0x3c2b0c62	0.010439964
144	0xbc722383	-0.0147789745
145	0x3cec8b36	0.028874975
146	0x3d11dedd	0.03561293
147	0xbd7f4864	-0.062324896
148	0x3e0602d6	0.1308702
149	0xbb2cd183	-0.0026369996
150	0xbd92d796	-0.07170026
151	0x3d541329	0.051776085
152	0x3d3a123b	0.045427542
153	0xbc2a7015	-0.010402699
154	0x3c1b913b	0.009495075
155	0xbba5d0f3	-0.005060309
156	0x3c9248d8	0.017857
157	0x3d1f1de0	0.03884685
158	0x3c291cc6	0.0103218015
159	0x3c32cb2c	0.010912698
160	0x3d767c53	0.06017716
161	0x3d1c5cef	0.038174566
162	0xbd821cce	-0.0635315
163	0x3cc48a1d	0.023991639
164	0xbd44fd1a	-0.04809294
165	0xbd687a46	-0.056757234
166	0xbb8feee6	-0.0043924926
167	0x3c884455	0.016634146
168	0xbd25af86	-0.040450595
169	0x3d5e5409	0.05427936
170	0x3c18fca4	0.009337578
171	0x3d3d1701	0.046164516
172	0x3bc4a2a5	0.006000834
173	0x3d8d9fa4	0.06915215
174	0x3c8bca9a	0.017064381
175	0x3d90d99e	0.07072757
176	0x3b604ca2	0.0034225364
177	0x3c82df37	0.015975578
178	0x3d8819f8	0.06645578
179	0x3c112d33	0.008860874
180	0x38572fb9	5.130444e-05
181	0x3c9e52bd	0.019326562
182	0xbc2fafa6	-0.01072303
183	0x3d6ce9cb	0.05784015
184	0xbd317170	-0.043321073
185	0xbb658c3d	-0.0035026215
186	0x3cd01fc3	0.02540577
187	0xbc030a74	-0.007998098
188	0x3d0d23e1	0.034458045
189	0xbd827c98	-0.063714206
190	0xbd0f6d4f	-0.035016354
191	0x3bbdece6	0.0057960628
192	0x3cf4edeb	0.029898604
193	0xbd84caae	-0.064839706
194	0x3a8c55e0	0.0010706745
195	0xbc6b5c65	-0.01436529
196	0xbd425f87	-0.047454383
197	0xbcb54790	-0.02212885
198	0xbc2995a9	-0.010350623
199	0xbc8b71f0	-0.017022103
200	0x3bb7af71	0.005605631
201	0x3db5bb5f	0.08873629
202	0x3cea1321	0.028573574
203	0x3e0c3f65	0.13696058
204	0xbc075cb5	-0.008261849
205	0xbc2ff592	-0.010739701
206	0x3d7b2004	0.06130983
207	0x3c5300d0	0.012878612
208	0xbd2a1580	-0.04152441
209	0xbc82abdd	-0.015951091
210	0x3d15b7b0	0.03655213
211	0xbd2e95d6	-0.042623363
212	0xbd1ab998	-0.037774652
213	0x3c216f16	0.009853145
214	0x3c1f5b59	0.009726369
215	0x3a150b6d	0.00056856015
216	0xbcef0f9e	-0.029182252
217	0xbd3c3c48	-0.045955926
218	0xbcd77d38	-0.026304826
219	0xbd0e6519	-0.034764383
220	0xbcdeaa8b	-0.02718093
221	0x3c8cdd41	0.017195346
222	0xbcb29d73	-0.021803593
223	0x3babaaed	0.005238882
224	0xbb9af471	-0.0047288467
225	0x3cad1e7e	0.021132704
226	0x3c66f816	0.014097234
227	0xbc8f655e	-0.01750439
228	0x3c2b4640	0.010453761
229	0x3caccc76	0.021093588
230	0x3b4332c5	0.00297849
231	0xbc31fc74	-0.010863412
232	0x3d2db2f4	0.04240699
233	0xbcff866e	-0.03119203
234	0x3ba282f4	0.0049594585
235	0xbc6ea2dc	-0.014565196
236	0x3b5c6a03	0.0033632524
237	0xbd532630	-0.05155009
238	0xbc56ca52	-0.01310976
239	0x3d6b0cff	0.05738544
240	0xbd1efe0d	-0.0388165
241	0x3c90e7fb	0.017688742
242	0xbc202776	-0.009775033
243	0xbcf3365d	-0.029689008
244	0xbbe7f31f	-0.007078543
245	0x3cf022bd	0.02931344
246	0xbda78eb3	-0.081815146
247	0xbd1df132	-0.0385601
248	0x3d55d109	0.052201305
249	0x3cbc6a1b	0.022999814
250	0x3ce2b822	0.027675692
251	0x3c95c2db	0.01828139
252	0xbd2fb8fb	-0.04290102
253	0xbd872fd6	-0.06600921
254	0xbba77ade	-0.0051110825
255	0xbd92c51d	-0.071665026

encoder.1.0.bias f4 [64]
0	0x3ca10759	0.019656824
1	0xbba20118	-0.004943978
2	0x3d37aefe	0.04484462
3	0xbb941f0b	-0.004520302
4	0x3cf0a5a2	0.029375855
5	0xbc1419a9	-0.009039321
6	0xbce9758d	-0.028498435
7	0xbd0107e8	-0.03150168
8	0xbcf6d8bb	-0.030132642
9	0x3c149942	0.009069743
10	0xbceb1e43	-0.028700953
11	0xbb43201b	-0.0029773775
12	0xbacf7bc8	-0.0015829736
13	0xbd2dac55	-0.042400677
14	0xbc966669	-0.01835938
15	0x3c7fbf9f	0.015609651
16	0xbc55b12c	-0.013042729
17	0xbcda5daa	-0.02665599
18	0x3b3c7285	0.0028754782
19	0x3d07ddcb	0.033170503
20	0x3a0584f1	0.0005093357
21	0xb867b1c8	-5.5240263e-05
22	0x3c9840ac	0.018585525
23	0x3cdcd36c	0.026956283
24	0xbd07f09d	-0.03318845
25	0xba458583	-0.00075348484
26	0xbc6830a0	-0.014171749
27	0x3cbe71d0	0.02324763
28	0x3b9e6a2b	0.0048344336
29	0xbc0833c5	-0.008313124
30	0xbc12cd3a	-0.008960063
31	0x3cb1c648	0.021700993
32	0xbc35cdf3	-0.011096465
33	0x3bcc181b	0.0062284595
34	0xbb35a4a7	-0.0027716549
35	0xbc1b11d8	-0.0094647035
36	0x3c70812b	0.014679234
37	0xbbea6982	-0.007153691
38	0x3cd6a918	0.026203677
39	0x3d34b2ff	0.044116016
40	0x3c143335	0.009045412
41	0xbc2a853c	-0.010407742
42	0x3c01a438	0.007912688
43	0xba568f6d	-0.0008184824
44	0xbb7a5cf1	-0.003820237
45	0x3d1aec3b	0.037822943
46	0xbd08dc3a	-0.03341315
47	0xbd17a01d	-0.03701793
48	0x3d496d0d	0.049176265
49	0xb839cddd	-4.4299162e-05
50	0x3d27eed0	0.040999234
51	0xbce7e9d8	-0.028309748
52	0x3c91c970	0.017796248
53	0x3d1b4a81	0.03791285
54	0x3d490a60	0.04908216
55	0xbcae5f11	-0.021285566
56	0xbd1491e6	-0.036271952
57	0xbc196f8a	-0.009364972
58	0xbb9124cd	-0.004429436
59	0xbce924c4	-0.028459914
60	0x3bbba5c8	0.00572655
61	0xbd375d6c	-0.04476683
62	0x3c96891f	0.018375931
63	0xbcd1e9a5	-0.025624106

encoder.1.1.weight f4 [64]
0	0x3f886162	1.0654719
1	0x3f81fe25	1.0155684
2	0x3f6c0e55	0.9220937
3	0x3f7c7658	0.9861808
4	0x3f82591a	1.0183442
5	0x3f84f14c	1.0386138
6	0x3f7ed842	0.99548733
7	0x3f7990fb	0.9748685
8	0x3f71d1ab	0.9446055
9	0x3f8e73fd	1.1129147
10	0x3f774dde	0.9660319
11	0x3f8546a3	1.0412182
12	0x3f83a14e	1.0283601
13	0x3f744db8	0.9543109
14	0x3f85fd93	1.046801
15	0x3f7f6d8f	0.9977655
16	0x3f7710db	0.96510094
17	0x3f77d66e	0.9681157
18	0x3f80edaa	1.0072529
19	0x3f8a02b1	1.0782071
20	0x3f7c2630	0.9849577
21	0x3f6ec8ff	0.93275446
22	0x3f6f2bef	0.9342641
23	0x3f7b6042	0.9819375
24	0x3f7f3dc9	0.9970365
25	0x3f7d7a36	0.99014604
26	0x3f6de34d	0.9292496
27	0x3f7b898a	0.9825674
28	0x3f7d3dd6	0.9892248
29	0x3f8501ec	1.0391212
30	0x3f7de044	0.9917033
31	0x3f7c48b0	0.9854841
32	0x3f8120dc	1.0088153
33	0x3f81db95	1.0145136
34	0x3f8372b9	1.0269386
35	0x3f749c2b	0.95550793
36	0x3f84ca1d	1.037418
37	0x3f852685	1.040238
38	0x3f710e71	0.9416266
39	0x3f80c36d	1.0059639
40	0x3f829353	1.020121
41	0x3f728b07	0.9474339
42	0x3f8393c0	1.0279465
43	0x3f7591c1	0.9592553
44	0x3f81e9df	1.0149497
45	0x3f7d7697	0.9900908
46	0x3f6e0363	0.9297392
47	0x3f7a7fad	0.9785107
48	0x3f64040d	0.8906868
49	0x3f825932	1.018347
50	0x3f82499c	1.0178714
51	0x3f88347a	1.0641015
52	0x3f8658ef	1.049589
53	0x3f84101a	1.0317414
54	0x3f90c826	1.131108
55	0x3f80e949	1.0071193
56	0x3f7b7690	0.98227787
57	0x3f86288d	1.0481125
58	0x3f72723f	0.94705576
59	0x3f84df52	1.0380652
60	0x3f80e644	1.0070271
61	0x3f8e0d09	1.1097728
62	0x3f696939	0.9117618
63	0x3f824f50	1.0180454

encoder.1.1.bias f4 [64]
0	0xbe1e9b54	-0.1548894
1	0xbdedbad5	-0.11607901
2	0xbe2bc54f	-0.16774486
3	0xbdddefbb	-0.108367406
4	0xbdc72d4e	-0.09725438
5	0xbdfc62a4	-0.12323502
6	0xbc80035a	-0.015626598
7	0xbd95bb96	-0.0731117
8	0xbd183e74	-0.037168935
9	0xbe8a4151	-0.27002957
10	0xbd24db7c	-0.04024838
11	0xbdfbd8de	-0.122972235
12	0xbe052043	-0.13000588
13	0xbe061fca	-0.13098064
14	0xbd95510f	-0.07290851
15	0xbd212e09	-0.039350543
16	0xbdcac431	-0.09900702
17	0xbe1cc0e8	-0.15307963
18	0xbd6f04d5	-0.058354218
19	0xbe097106	-0.13422021
20	0xbcfe64db	-0.031053951
21	0xbdaf14e0	-0.085489035
22	0xbdbcd14d	-0.092196085
23	0xbe5d2cd6	-0.21599135
24	0xbe194227	-0.14966641
25	0xbd9d76dd	-0.07688687
26	0xbe4df90e	-0.20114538
27	0xbde0d05b	-0.10977241
28	0xbc442256	-0.011971077
29	0xbdb11f5b	-0.08648559
30	0xbd49ec01	-0.049297336
31	0xbdd6c166	-0.104861066
32	0xbd0cca43	-0.03437258
33	0xbe40d099	-0.18829574
34	0xbe36382a	-0.17794862
35	0xbdd59488	-0.10428721
36	0xbe3e7e33	-0.18602829
37	0xbd5e7842	-0.054313906
38	0xbe047c8f	-0.1293814
39	0xbdb59ca8	-0.088677704
40	0xbdc6258c	-0.0967513
41	0xbe4e8ce5	-0.20170934
42	0xbda7b5a1	-0.0818894
43	0xbdd5c4a8	-0.104379
44	0xbe005bc2	-0.12535003
45	0xbce1457c	-0.027498953
46	0x3bd57323	0.0065139695
47	0xbd926f91	-0.07150186
48	0xbdfddb28	-0.12395316
49	0xbc5dae78	-0.013530366
50	0xbd89af97	-0.06722944
51	0xbd90e31a	-0.07074566
52	0xbda03ae9	-0.07823736
53	0xbe177aff	-0.14793013
54	0x3cd7b92a	0.02633341
55	0xbe13a69e	-0.14419028
56	0xbe20ef7d	-0.15716358
57	0x3d579b24	0.052638188
58	0xbdaf57a4	-0.08561638
59	0xbcb1da58	-0.02171056
60	0xbde2afb7	-0.11068671
61	0xbe1cc02e	-0.15307686
62	0xbddf88eb	-0.10914787
63	0xbd8e3a1b	-0.069446765

encoder.1.1.running_mean f4 [64]
0	0x3f999f97	1.2001828
1	0x3f13fbf5	0.5780633
2	0x3f474aed	0.778487
3	0x3da9f4ba	0.08298631
4	0x3ebd39e6	0.36958236
5	0x3faa931e	1.3326147
6	0x3ba47ace	0.0050195223
7	0xbf309c0e	-0.6898812
8	0xbf5cdd96	-0.86275613
9	0x3f8d96a5	1.1061598
10	0xbc3c71be	-0.011501728
11	0xbf8741c9	-1.0566951
12	0xbfa0d973	-1.256636
13	0x3e45a9df	0.19303082
14	0xbeb00096	-0.34375447
15	0xbea6ba43	-0.3256398
16	0x3f9d8a9a	1.2307923
17	0xbf8b88e0	-1.0901146
18	0xbf46695a	-0.77504504
19	0xbed5c7d0	-0.41754007
20	0xbece225d	-0.40260592
21	0xbed4272a	-0.4143613
22	0x3ea09479	0.31363276
23	0x3c05c36a	0.008164266
24	0xbea1e2d1	-0.3161836
25	0x3ecb59e0	0.39717007
26	0x3f368278	0.7129283
27	0xbee3daa9	-0.44502762
28	0xbf21feef	-0.6327962
29	0xbed4f449	-0.41592625
30	0x3e2c8fc9	0.16851725
31	0x3f035c94	0.5131314
32	0xbf2cfd34	-0.6757386
33	0xbf23e14f	-0.6401567
34	0x3f052763	0.52013224
35	0x3e8bd94b	0.2731422
36	0xbe33911e	-0.17535827
37	0x3d88f15e	0.06686662
38	0x3ef6f092	0.48230416
39	0xbf7d5586	-0.98958623
40	0xbf267eb5	-0.6503709
41	0x3eccae38	0.39976668
42	0xbecf65fc	-0.40507495
43	0xbe976b96	-0.2957427
44	0x3cbc9d2b	0.023024162
45	0xbf700cab	-0.9376933
46	0x3e0792e5	0.1323963
47	0xbfd7820f	-1.6836566
48	0x3e83b1ae	0.25721496
49	0xbefa6d71	-0.48911622
50	0xbf194c0b	-0.5988166
51	0xbe975b7b	-0.29561982
52	0xbf0c4292	-0.5478908
53	0xbf826813	-1.0188011
54	0xc034686f	-2.8188741
55	0xbf0b07f6	-0.5430902
56	0xbe6a8c56	-0.22905096
57	0xbdb2d134	-0.087313086
58	0x3cf1bc6d	0.029508794
59	0x3e0f867a	0.14016142
60	0xbe4be968	-0.19913256
61	0x3f309377	0.68975013
62	0x3f8821a7	1.063527
63	0xbf780d89	-0.96895653

encoder.1.1.running_var f4 [64]
0	0x3f47f3eb	0.78106564
1	0x3fb16d0d	1.3861405
2	0x3f6e971f	0.9319934
3	0x3f808e22	1.0043375
4	0x3f6e030d	0.92973405
5	0x3f4bd6a8	0.79624414
6	0x3fcdb25e	1.6070058
7	0x3f9a637d	1.2061611
8	0x3f6a0b89	0.9142385
9	0x3f413e87	0.75486034
10	0x3fb10d98	1.3832273
11	0x40107ee4	2.2577448
12	0x40210043	2.515641
13	0x3f616d33	0.8805725
14	0x3f89f9c9	1.0779353
15	0x3f6a3b8a	0.914971
16	0x4015e47e	2.342071
17	0x3fc2fb54	1.5232949
18	0x3fe4e903	1.788361
19	0x3fa7928a	1.3091595
20	0x3f4de066	0.8042053
21	0x3fb3d44d	1.4049164
22	0x3febb475	1.8414446
23	0x3f7e395d	0.9930628
24	0x400287ac	2.0395308
25	0x3f76bd88	0.9638295
26	0x40230d58	2.5476894
27	0x3fe84c1c	1.8148227
28	0x3fa1bb6b	1.263532
29	0x3f75f201	0.96072394
30	0x3f806b8d	1.0032822
31	0x3fcb7eef	1.5898112
32	0x3f506f1e	0.8141955
33	0x4024d71d	2.5756295
34	0x3f3c02a3	0.73441523
35	0x3fa21747	1.2663354
36	0x3f9b36f5	1.2126147
37	0x3f5b37bc	0.8563192
38	0x4002270a	2.0336328
39	0x4000a1f6	2.0098853
40	0x3f672a2e	0.90298736
41	0x40042030	2.0644646
42	0x4000858b	2.0081508
43	0x3f3c04fe	0.7344512
44	0x3fa5ff02	1.2968447
45	0x3fa2ee80	1.2729034
46	0x3f8122e4	1.0088773
47	0x402fa223	2.744271
48	0x3f345087	0.70435375
49	0x3ffa632a	1.9561512
50	0x400c7dcb	2.1951778
51	0x3f91072f	1.1330317
52	0x4040afa5	3.0107205
53	0x40197d88	2.3982868
54	0x409b62b8	4.8558006
55	0x3faa7dea	1.3319676
56	0x3f92a8cc	1.1457763
57	0x3f624d28	0.8839898
58	0x3fbd0a3b	1.4768747
59	0x3f55df88	0.83544207
60	0x3fc8e05c	1.5693469
61	0x3f608708	0.8770604
62	0x3fdd5883	1.7292637
63	0x3fd9db0d	1.7019974

encoder.2.0.weight f4 [64, 64, 3, 3]
0	0x3c42b6d9	0.011884415
1	0x3cb5978c	0.02216699
2	0x3d578064	0.052612677
3	0x3c976bd8	0.018484041
4	0xbbed371b	-0.007239235
5	0xbdd2035b	-0.10254546
6	0x3ceac018	0.02865605
7	0x3d18c0fe	0.037293427
8	0x3bc31253	0.005953112
9	0xbbef4da1	-0.0073029553
10	0x3c923a92	0.017850194
11	0x3d52be76	0.05145117
12	0xbc03ca51	-0.008043841
13	0xbc4be42d	-0.012444538
14	0x3c10db47	0.008841342
15	0x3d225c6b	0.039638918
16	0x3a217c48	0.0006160182
17	0xbca8d594	-0.020609654
18	0xbc1dc803	-0.009630206
19	0x3d8df936	0.06932299
20	0x3d8c7024	0.068573266
21	0x3bd35637	0.0064494866
22	0x3cc9070b	0.024539491
23	0x3d09efd9	0.033676002
24	0xbc76e28f	-0.015068664
25	0x3cceea3e	0.02525818
26	0x3c60b5fb	0.0137152625
27	0x3bcab9d1	0.006186702
28	0xbc477bcc	-0.012175512
29	0x3cb1ee02	0.021719936
30	0xbb2c4896	-0.0026288382
31	0xbb04fb60	-0.0020291433
32	0x3c1b09f1	0.009462819
33	0x3d55e678	0.052221745
34	0x3c6752d7	0.014118872
35	0x3c0b0772	0.008485662
36	0xbc4a93a1	-0.012364299
37	0x3d5eb054	0.05436738
38	0xbd69bed7	-0.057066765
39	0x3d87a16d	0.066225864
40	0x3d86328f	0.06552612
41	0xbd697068	-0.056991965
42	0x3c853239	0.0162593
43	0x3d472726	0.04862132
44	0xbd51864a	-0.05115346
45	0x3d96addf	0.07357382
46	0x3d5a2ccd	0.05326538
47	0x3c81065c	0.015750103
48	0x3cfbde1a	0.030745555
49	0x3c97498e	0.01846769
50	0x3c17729b	0.009243633
51	0xbcd611ad	-0.026131475
52	0xbaaa7c28	-0.0013006972
53	0xbb5917d3	-0.0033125773
54	0x3cb500d2	0.022095118
55	0xbcc55aad	-0.02409109
56	0xbd47fd41	-0.048825506
57	0x3c03dcf6	0.008048287
58	0x3bf724f3	0.0075422465
59	0xbd106814	-0.035255507
60	0xbce909cf	-0.02844706
61	0x3cc2518e	0.023720529
62	0xbd5b0215	-0.053468782
63	0x3ca9c7a4	0.020725079
64	0xbca1eaf1	-0.01976535
65	0xbd0c7959	-0.034295414
66	0xbc32fe32	-0.010924863
67	0xbd5788e9	-0.052620802
68	0x3aef0c57	0.001823793
69	0xbd203e3f	-0.039121863
70	0xbd79f19c	-0.061021432
71	0xbd2a5b94	-0.041591242
72	0x3c6e6092	0.014549391
73	0xbd115cf2	-0.03548903
74	0x3b8a4a89	0.004220311
75	0x3d270438	0.040775508
76	0xbb7112c2	-0.0036784862
77	0x3d60f2da	0.0549191
78	0x3d43d893	0.047813963
79	0x3da6bc7b	0.081414185
80	0x3c93861e	0.018008288
81	0x3d428d34	0.047497943
82	0x3bc550f2	0.0060216123
83	0xbcd1ba55	-0.025601545
84	0x3d50dfc5	0.050994653
85	0x3d1b4b6f	0.037913736
86	0xbd9a0992	-0.07521357
87	0xbc628b39	-0.013827139
88	0xbd365ab4	-0.044520095
89	0xbd5f96de	-0.054587238
90	0xbce6ac46	-0.028158318
91	0xbb8889e5	-0.004166829
92	0x3d174400	0.036930084
93	0xbcaf108c	-0.021370195
94	0x3d224dd5	0.039625008
95	0x3d373191	0.044725005
96	0x3c0926ed	0.008371097
97	0xbcc2f91d	-0.023800427
98	0x3ae6e6cc	0.001761639
99	0xbdb5e9c3	-0.08882477
100	0xbcb47fcf	-0.0220336
101	0xbbca3dc9	-0.006171916
102	0xbcd6d0c6	-0.026222598
103	0xbcf6e3ca	-0.030137915
104	0xbd68f836	-0.056877337
105	0xbd03e4bf	-0.03220057
106	0x3d832a56	0.06404559
107	0xbd7d1c51	-0.061794583
108	0xbcdfde9b	-0.027327826
109	0x3cbd440e	0.02310374
110	0xbb09dd2a	-0.0021036365
111	0xbda2ffb9	-0.079589315
112	0xbbc31e34	-0.005954528
113	0x3d30f018	0.04319772
114	0xbcffdd8d	-0.031233573
115	0x3cf8ced3	0.030372059
116	0x3cc62546	0.024187695
117	0xba40aa55	-0.00073496
118	0x3d81aef2	0.06332196
119	0x3c011660	0.00787887
120	0x3d67ba6b	0.056574266
121	0x3d213fb5	0.039367396
122	0x3d77855b	0.060429912
123	0x3c3d35d6	0.01154848
124	0x3d8c8291	0.06860841
125	0x3d46bf38	0.048522204
126	0x3cb540ee	0.022125687
127	0x3d28ae30	0.041181743
128	0x3cd4c6f2	0.02597377
129	0xbc32c0a2	-0.010910185
130	0x3db06564	0.08613089
131	0x3d7b0d82	0.06129218
132	0xbc060346	-0.008179491
133	0x3da5fdc8	0.081050456
134	0x3bad2683	0.005284132
135	0xbddd686a	-0.10810931
136	0xbc6de695	-0.014520307
137	0xbcbd94d8	-0.023142263
138	0x3cfb5f14	0.030684985
139	0xba5529df	-0.00081315445
140	0xbcf8fd58	-0.030394241
141	0x3c42ce19	0.011889958
142	0x3d8337b0	0.06407106
143	0x3c7efedd	0.015563694
144	0xbcd4ad3d	-0.025961513
145	0x3d02053a	0.031743266
146	0xbd107034	-0.035263255
147	0x3d0d08da	0.03443227
148	0x3d79308f	0.060837325
149	0xbd831e59	-0.06402273
150	0x3d8f0a35	0.06984369
151	0x3d3cdc85	0.04610874
152	0x3c374e55	0.011188109
153	0xbd004039	-0.031311247
154	0xbc4bde09	-0.012443074
155	0x3b834e64	0.0040071476
156	0xbc600692	-0.0136734415
157	0xbbc2d0c1	-0.0059452956
158	0x3c6127d1	0.013742403
159	0xbcbdb73e	-0.023158666
160	0x3d47b117	0.04875287
161	0xbc98eda7	-0.018668009
162	0x3c425654	0.011861403
163	0x3c832d53	0.016012823
164	0x3d40d245	0.04707553
165	0x3d0d8d34	0.03455849
166	0xbd4d040b	-0.050052684
167	0x3d1baf34	0.038008884
168	0xbc21a74a	-0.009866545
169	0xbcae0421	-0.021242203
170	0xbd16f443	-0.03685404
171	0x3cef1233	0.029183483
172	0xbbe3fead	-0.00695785
173	0xbc26713e	-0.010158835
174	0xbc614095	-0.013748308
175	0x3bb039b3	0.005377972
176	0xbd0adb66	-0.03390064
177	0x3ce2ee80	0.027701616
178	0x3c039171	0.008030281
179	0xbd74d010	-0.059768736
180	0xbcf0a85b	-0.029377153
181	0x3b09dc06	0.0021035685
182	0x3c38f813	0.011289614
183	0xbcf8ac67	-0.030355645
184	0xbd6b30a4	-0.057419434
185	0x3d1b1b9a	0.03786812
186	0x3bc0b5a1	0.005881027
187	0xbc983679	-0.018580662
188	0xba3e7dc4	-0.00072666653
189	0xbbd46f47	-0.006482992
190	0x3da18c3c	0.07888076
191	0xbcf9aef1	-0.030478926
192	0x3cf55f6e	0.029952731
193	0x3d6de035	0.05807515
194	0xbc59b4b5	-0.013287713
195	0x3d05bfb9	0.032653544
196	0x3d822bbb	0.06355997
197	0x3c9ccaae	0.019139614
198	0x3c457367	0.01205144
199	0xbce87c61	-0.028379621
200	0xbc664441	-0.014054359
201	0x3c0cc95b	0.008592929
202	0xbc1adb38	-0.00945168
203	0xbc184f2c	-0.00929622
204	0x3d27d6e1	0.04097641
205	0x3aa75053	0.0012765027
206	0xbd1dc171	-0.03851456
207	0x3adfbacf	0.0017069223
208	0x3cbf7685	0.023371944
209	0x3c898f90	0.016792089
210	0xbd66fa88	-0.05639127
211	0x3adf4690	0.0017034579
212	0x3c89b550	0.01681009
213	0xbc1c622c	-0.00954489
214	0x3adac8cf	0.0016691926
215	0xbd2d7b87	-0.042354133
216	0x3c942368	0.01808329
217	0xbada78df	-0.0016668102
218	0x3d444eb5	0.047926623
219	0xbd39ba37	-0.045343604
220	0xbd6d9e5b	-0.058012348
221	0xbd52ca9c	-0.051462755
222	0xbc3ee61a	-0.01165154
223	0xbd037297	-0.032091703
224	0xbc364896	-0.011125704
225	0x3c2a831d	0.010407236
226	0x3cef6153	0.029221212
227	0xbd278cae	-0.040905647
228	0x3c2c832c	0.010529321
229	0x3d9a6743	0.07539227
230	0x3b2e6d11	0.0026615302
231	0x3d0f0778	0.034919232
232	0xbd5cc980	-0.053903103
233	0xbc4d9f98	-0.012550257
234	0x3b3c8f85	0.0028772068
235	0x3d20cbe3	0.03925694
236	0x3d14964a	0.03627614
237	0xbce4cf74	-0.027930953
238	0x3d7df141	0.061997656
239	0x3d1f1c50	0.03884536
240	0x3c3f1656	0.01166304
241	0x3cdb271c	0.026752047
242	0xbd3fd8b3	-0.04683752
243	0xbd534ed7	-0.05158886
244	0x3c8a8654	0.016909756
245	0x3cc63476	0.024194937
246	0xbc7a3c37	-0.015273145
247	0xbc602c7a	-0.013682479
248	0xbd400709	-0.04688171
249	0x3bd043b3	0.0063557266
250	0xbd477a47	-0.048700597
251	0xbdc09d57	-0.0940501
252	0xbce6f784	-0.028194197
253	0xbd8bb4ec	-0.068216175
254	0xbc87421e	-0.01651102
255	0x3d98c037	0.07458537

encoder.2.0.bias f4 [64]
0	0xbcaa2ea7	-0.020774199
1	0xbb9b3a93	-0.004737207
2	0xbc50f4e7	-0.012753702
3	0xbd0af54e	-0.033925347
4	0xbb891eae	-0.0041845655
5	0xbb400b00	-0.0029303432
6	0x3d047709	0.032340083
7	0xbd4a51a0	-0.04939425
8	0xbbc12b73	-0.005895072
9	0x3d257f78	0.040404767
10	0x3c8d5320	0.017251551
11	0xbcac4c8d	-0.021032596
12	0xbcee3937	-0.029080017
13	0xbc641627	-0.013921297
14	0x3a508696	0.0007954625
15	0xbb56b449	-0.0032761267
16	0x3c4426d5	0.011972149
17	0x3d12b45c	0.035816535
18	0x3d163538	0.036671847
19	0xbd221c67	-0.039577868
20	0xbca7ac49	-0.020467894
21	0xbcbfbfa4	-0.023406811
22	0xbc699cd5	-0.014258583
23	0xbbaf5ec6	-0.005351874
24	0xbc4c90e7	-0.012485719
25	0xba983506	-0.0011612482
26	0xbcc458bd	-0.023968095
27	0x3c0acf08	0.008472212
28	0xbc39cf09	-0.011340865
29	0xbcd0822a	-0.025452692
30	0xbba58204	-0.0050508995
31	0xba829bfb	-0.0009964699
32	0x3d0e77ee	0.034782343
33	0xbbbad789	-0.0057019633
34	0xbd1ed7e3	-0.038780104
35	0x3bcd1fb5	0.0062598833
36	0x3cb63cc7	0.022245778
37	0x3cb48c61	0.022039594
38	0xbc3a18e6	-0.011358475
39	0xbbab7516	-0.0052324636
40	0xbab71a28	-0.0013969587
41	0xbd084840	-0.033272028
42	0x3c9a61af	0.018845407
43	0xbd30a035	-0.043121535
44	0xbce0f92a	-0.02746256
45	0xbbc2940a	-0.005938058
46	0x3cfbcfdf	0.03073877
47	0x3cb5c497	0.022188468
48	0xbcef408a	-0.02920558
49	0x3cf2e314	0.029649295
50	0x3c2eceb2	0.010669397
51	0xbcefa82c	-0.029254995
52	0x3ce038bf	0.027370809
53	0xbd059c87	-0.03261998
54	0xbc7d31ae	-0.015453739
55	0xbccf4afd	-0.025304312
56	0x3b8b81b1	0.004257404
57	0xbd1b82d2	-0.037966557
58	0xbd1f153a	-0.038838603
59	0x3d029223	0.031877648
60	0x3c1f2b3d	0.009714899
61	0xbcf89cc6	-0.030348193
62	0xbb998497	-0.0046849954
63	0xbcce5590	-0.025187284

encoder.2.1.weight f4 [64]
0	0x3f7d8ee3	0.9904615
1	0x3f8923eb	1.0714086
2	0x3f72a764	0.9478667
3	0x3f8845c1	1.0646287
4	0x3f844ac3	1.0335315
5	0x3f84f4b2	1.0387175
6	0x3f890148	1.0703516
7	0x3f82c5b8	1.0216589
8	0x3f70c6d6	0.940534
9	0x3f7718ce	0.96522224
10	0x3f7d3518	0.9890914
11	0x3f5cfdf0	0.8632498
12	0x3f7f5d98	0.9975219
13	0x3f74b446	0.95587575
14	0x3f73ec8d	0.9528282
15	0x3f70283d	0.938114
16	0x3f780019	0.9687515
17	0x3f79de25	0.9760459
18	0x3f79b438	0.97540617
19	0x3f81329e	1.0093572
20	0x3f8189a4	1.012013
21	0x3f753059	0.957769
22	0x3f6f60a4	0.93506837
23	0x3f751e8a	0.95749724
24	0x3f7d9943	0.99061984
25	0x3f8bef0e	1.0932329
26	0x3f8d1193	1.1020988
27	0x3f8c801a	1.0976593
28	0x3f83ec6f	1.0306529
29	0x3f85dfae	1.0458887
30	0x3f829c17	1.0203885
31	0x3f7a3603	0.97738665
32	0x3f83b5b3	1.0289825
33	0x3f83891e	1.027622
34	0x3f76bb03	0.9637911
35	0x3f878b8e	1.0589464
36	0x3f7530f7	0.9577784
37	0x3f7dc0a0	0.9912205
38	0x3f78d748	0.97203493
39	0x3f859f79	1.0439292
40	0x3f8558fa	1.0417778
41	0x3f6f6583	0.9351427
42	0x3f8335ec	1.0250831
43	0x3f80fbfa	1.0076897
44	0x3f82c1bf	1.0215377
45	0x3f7d1d03	0.98872393
46	0x3f7f9739	0.9984012
47	0x3f7c2741	0.98497397
48	0x3f71ef55	0.94505817
49	0x3f710a74	0.94156575
50	0x3f74e566	0.95662534
51	0x3f8a8fe0	1.0825157
52	0x3f737a56	0.95108545
53	0x3f7ab7ce	0.97936714
54	0x3f82ab14	1.0208459
55	0x3f8be9cc	1.0930724
56	0x3f811615	1.0084864
57	0x3f80c0b3	1.0058807
58	0x3f6d5afa	0.92716944
59	0x3f7793d2	0.9670993
60	0x3f6ca800	0.9244385
61	0x3f82f8fd	1.0232235
62	0x3f7475b8	0.95492125
63	0x3f867f8b	1.0507673

encoder.2.1.bias f4 [64]
0	0xbe11fd59	-0.142568
1	0xbdfbfb53	-0.12303796
2	0xbcf78ba6	-0.030217957
3	0xbdba7728	-0.091047585
4	0xbdcb2264	-0.09918669
5	0xbe0aa578	-0.13539684
6	0xbe3d8bd3	-0.1851037
7	0xbdfaa763	-0.12238958
8	0xbe364c26	-0.17802486
9	0xbdef873d	-0.116957165
10	0xbd026159	-0.03183112
11	0xbc858654	-0.016299404
12	0xbe0d7394	-0.13813621
13	0xbd9bfa6e	-0.07616125
14	0xbe434e8d	-0.19072933
15	0x3da4ce6f	0.080471866
16	0xbdc5cc89	-0.096581526
17	0xbe25202e	-0.16125557
18	0xbdba3b8c	-0.09093389
19	0xbddd8eaa	-0.10818227
20	0xbe12f63e	-0.14351746
21	0xbd980562	-0.07422902
22	0xbe14d1f2	-0.14533213
23	0xbd94052b	-0.07227548
24	0xbe0a523b	-0.13507931
25	0xbcbfb346	-0.023400914
26	0xbcb42597	-0.02199058
27	0xbd3c91c7	-0.04603746
28	0xbe1d18b6	-0.15341458
29	0xbd8d5790	-0.06901467
30	0xbd9424d7	-0.07233589
31	0xbe07d2c8	-0.13264
32	0xbd997f91	-0.074950345
33	0xbdf35d31	-0.11883009
34	0xbdd0407e	-0.10168551
35	0xbdf54540	-0.11976099
36	0xbdb62cce	-0.088952646
37	0xbe2083c3	-0.15675263
38	0xbdd87b7e	-0.10570429
39	0xbd903d41	-0.07042933
40	0x3baf0ba6	0.005341965
41	0xbdaac456	-0.08338229
42	0xbdc6205e	-0.09674142
43	0xbd963711	-0.07334722
44	0xba263cb8	-0.0006341445
45	0xbdc9d784	-0.098555595
46	0xbc59b4c8	-0.0132877305
47	0xbdc12319	-0.094305225
48	0xbe0d8dd0	-0.13823628
49	0xbddbf669	-0.107403584
50	0xbdfc7f88	-0.12329012
51	0xbe3d36b8	-0.18477905
52	0xbd7d767b	-0.06188057
53	0xbe44d89b	-0.19223253
54	0x3d350d81	0.04420233
55	0xbe149a6b	-0.14512031
56	0xbc776b77	-0.015101305
57	0xbe04c961	-0.12967445
58	0xbd5eced2	-0.054396458
59	0xbe154745	-0.14577968
60	0xbe19ee23	-0.15032248
61	0xbd476737	-0.048682418
62	0xbe0a4769	-0.13503803
63	0xbddc5d4b	-0.10759982

encoder.2.1.running_mean f4 [64]
0	0x3e9da335	0.3078858
1	0xbe997d88	-0.29978585
2	0xbfa2946b	-1.2701544
3	0x3eedf04e	0.464724
4	0x3fccd454	1.6002297
5	0xbf3ea539	-0.7447086
6	0x3eae5ed5	0.34056726
7	0x3ecbf805	0.3983766
8	0x3e3cd5b2	0.18440893
9	0xbf52287f	-0.8209304
10	0x3e55b0db	0.20868246
11	0x4007a72f	2.119579
12	0xbf6adc57	-0.9174246
13	0x3efd6950	0.4949441
14	0x3ed06018	0.40698314
15	0x3f4a2d12	0.7897502
16	0x3e8f46ba	0.27983648
17	0xbeb3a1f8	-0.3508451
18	0xbfb6f8ce	-1.4294679
19	0x3fb1646f	1.3858775
20	0xbf512945	-0.817036
21	0x3d9bc757	0.076063804
22	0xbfb0b7fc	-1.3806148
23	0x3f5a1fe4	0.8520491
24	0x3e76709b	0.24066393
25	0xbe891b01	-0.26778415
26	0xc00ba836	-2.1821418
27	0x3d5fbd52	0.05462391
28	0xbdff4859	-0.12464971
29	0xc0447afb	-3.0700061
30	0xbf65cca6	-0.89765394
31	0xbe7d1991	-0.24716784
32	0xbc83c2e6	-0.016084146
33	0x3f35aa7b	0.7096326
34	0x3c579e2d	0.013160271
35	0xbeea0552	-0.45707184
36	0x3e932c03	0.28744516
37	0x3ec6fba2	0.38863856
38	0x3fb2720c	1.3941054
39	0x3e8d9cd1	0.27658704
40	0xbfff487b	-1.9943994
41	0xbf063fef	-0.52441305
42	0xbe71bae5	-0.23606451
43	0xbd6fa952	-0.058511086
44	0x3e8acc2b	0.27108893
45	0x3f2eb3ad	0.68242913
46	0x3f4ff49b	0.81232613
47	0xbf67529b	-0.9036042
48	0xbefcaef2	-0.49352223
49	0x3fc82702	1.5636904
50	0x4018c14d	2.3867981
51	0xbf0b12af	-0.54325384
52	0xbf967920	-1.1755714
53	0x3f04e532	0.51912224
54	0x3e966d99	0.2938049
55	0xbf2c041d	-0.67193776
56	0x3eba3c82	0.3637429
57	0x3e074c4e	0.13212702
58	0x3fd900b4	1.695334
59	0x4013358e	2.3001437
60	0x3f270954	0.6524861
61	0xc027df2d	-2.6229966
62	0x3d519ae4	0.051173106
63	0xbea3be10	-0.31980944

encoder.2.1.running_var f4 [64]
0	0x406babd9	3.6823637
1	0x4037beab	2.8710124
2	0x40ab2940	5.3487854
3	0x409b4739	4.852444
4	0x40878689	4.2351727
5	0x40763739	3.8471205
6	0x4013d036	2.3095832
7	0x4005fc47	2.0935228
8	0x4004eef4	2.0770845
9	0x40139452	2.3059278
10	0x4048f494	3.1399279
11	0x40483b28	3.1286106
12	0x4034f399	2.827368
13	0x400a5d25	2.161935
14	0x3ff3389e	1.9001653
15	0x3fb7e734	1.4367433
16	0x40353890	2.8315773
17	0x401616f4	2.345151
18	0x408a9f5e	4.331954
19	0x401bb6ab	2.4330242
20	0x402ecdf5	2.7313206
21	0x4016df26	2.35737
22	0x402c3f83	2.6913764
23	0x3fe8b8ec	1.8181434
24	0x407e3b52	3.9723706
25	0x4008ac7d	2.1355278
26	0x409d2238	4.910427
27	0x4066e497	3.607702
28	0x40342339	2.8146498
29	0x40ba8f93	5.830026
30	0x405bd8fa	3.4351182
31	0x4039e85b	2.9048069
32	0x40756f2d	3.8349106
33	0x4007d869	2.1225836
34	0x405ad5e0	3.419304
35	0x402ef3a0	2.7336197
36	0x3fc69643	1.5514606
37	0x405a0320	3.4064407
38	0x40391a56	2.8922324
39	0x403bb557	2.932943
40	0x4092c8ba	4.5870028
41	0x3feb1ed6	1.8368785
42	0x4082b7da	4.084943
43	0x4054a900	3.322815
44	0x3fdd13e0	1.727169
45	0x4038e9a9	2.8892615
46	0x400d5a3a	2.208632
47	0x409b207c	4.8477154
48	0x4020c2cb	2.5118892
49	0x40263e36	2.597547
50	0x408068d6	4.0127974
51	0x402b5c14	2.677495
52	0x403b0d28	2.922678
53	0x4020a6fb	2.5101917
54	0x3fb67e40	1.4257278
55	0x401e5dfa	2.4744859
56	0x3ffc30f2	1.9702437
57	0x4047bd8f	3.1209447
58	0x4051598c	3.2710905
59	0x403487ad	2.820781
60	0x402b1b92	2.6735578
61	0x409ad081	4.837952
62	0x400b39a8	2.175394
63	0x40386863	2.8813713
